…
I0412 21:13:25.211642 172649 net.cpp:313] The NetState phase (0) differed from the phase (1) specified by a rule in layer cifar
I0412 21:13:25.211694 172649 net.cpp:313] The NetState phase (0) differed from the phase (1) specified by a rule in layer accuracy
I0412 21:13:25.211828 172649 net.cpp:49] Initializing net from parameters: 
name: "CIFAR10_quick"
state {
  phase: TRAIN
}
layer {
  name: "cifar"
  type: "Data"
  top: "data"
  top: "label"
  include {
    phase: TRAIN
  }
  transform_param {
    mean_file: "examples/cifar10/mean.binaryproto"
  }
  data_param {
    source: "examples/cifar10/cifar10_train_lmdb"
    batch_size: 100
    backend: LMDB
  }
}
layer {
  name: "conv1"
  type: "Convolution"
  bottom: "data"
  top: "conv1"
  param {
    lr_mult: 1
  }
  param {
    lr_mult: 2
  }
  convolution_param {
    num_output: 32
    pad: 2
    kernel_size: 5
    stride: 1
    weight_filler {
      type: "gaussian"
      std: 0.0001
    }
    bias_filler {
      type: "constant"
    }
  }
}
layer {
  name: "pool1"
  type: "Pooling"
  bottom: "conv1"
  top: "pool1"
  pooling_param {
    pool: MAX
    kernel_size: 3
    stride: 2
  }
}
layer {
  name: "relu1"
  type: "ReLU"
  bottom: "pool1"
  top: "pool1"
}
layer {
  name: "conv2"
  type: "Convolution"
  bottom: "pool1"
  top: "conv2"
  param {
    lr_mult: 1
  }
  param {
    lr_mult: 2
  }
  convolution_param {
    num_output: 32
    pad: 2
    kernel_size: 5
    stride: 1
    weight_filler {
      type: "gaussian"
      std: 0.01
    }
    bias_filler {
      type: "constant"
    }
  }
}
layer {
  name: "relu2"
  type: "ReLU"
  bottom: "conv2"
  top: "conv2"
}
layer {
  name: "pool2"
  type: "Pooling"
  bottom: "conv2"
  top: "pool2"
  pooling_param {
    pool: AVE
    kernel_size: 3
    stride: 2
  }
}
layer {
  name: "conv3"
  type: "Convolution"
  bottom: "pool2"
  top: "conv3"
  param {
    lr_mult: 1
  }
  param {
    lr_mult: 2
  }
  convolution_param {
    num_output: 64
    pad: 2
    kernel_size: 5
    stride: 1
    weight_filler {
      type: "gaussian"
      std: 0.01
    }
    bias_filler {
      type: "constant"
    }
  }
}
layer {
  name: "relu3"
  type: "ReLU"
  bottom: "conv3"
  top: "conv3"
}
layer {
  name: "pool3"
  type: "Pooling"
  bottom: "conv3"
  top: "pool3"
  pooling_param {
    pool: AVE
    kernel_size: 3
    stride: 2
  }
}
layer {
  name: "ip1"
  type: "InnerProduct"
  bottom: "pool3"
  top: "ip1"
  param {
    lr_mult: 1
  }
  param {
    lr_mult: 2
  }
  inner_product_param {
    num_output: 64
    weight_filler {
      type: "gaussian"
      std: 0.1
    }
    bias_filler {
      type: "constant"
    }
  }
}
layer {
  name: "ip2"
  type: "InnerProduct"
  bottom: "ip1"
  top: "ip2"
  param {
    lr_mult: 1
  }
  param {
    lr_mult: 2
  }
  inner_product_param {
    num_output: 10
    weight_filler {
      type: "gaussian"
      std: 0.1
    }
    bias_filler {
      type: "constant"
    }
  }
}
layer {
  name: "loss"
  type: "SoftmaxWithLoss"
  bottom: "ip2"
  bottom: "label"
  top: "loss"
}
I0412 21:13:25.222822 172649 layer_factory.hpp:77] Creating layer cifar
I0412 21:13:25.224757 172649 net.cpp:91] Creating Layer cifar
I0412 21:13:25.224786 172649 net.cpp:399] cifar -> data
I0412 21:13:25.229537 172649 net.cpp:399] cifar -> label
I0412 21:13:25.263509 172653 db_lmdb.cpp:38] Opened lmdb examples/cifar10/cifar10_train_lmdb
I0412 21:13:25.322556 172649 data_transformer.cpp:25] Loading mean file from: examples/cifar10/mean.binaryproto
I0412 21:13:25.439134 172649 data_layer.cpp:41] output data size: 100,3,32,32
I0412 21:13:25.452569 172649 net.cpp:141] Setting up cifar
I0412 21:13:25.452623 172649 net.cpp:148] Top shape: 100 3 32 32 (307200)
I0412 21:13:25.452641 172649 net.cpp:148] Top shape: 100 (100)
I0412 21:13:25.452673 172649 net.cpp:156] Memory required for data: 1229200
I0412 21:13:25.452702 172649 layer_factory.hpp:77] Creating layer conv1
I0412 21:13:25.452767 172649 net.cpp:91] Creating Layer conv1
I0412 21:13:25.452786 172649 net.cpp:425] conv1 <- data
I0412 21:13:25.452814 172649 net.cpp:399] conv1 -> conv1
I0412 21:13:27.796082 172649 net.cpp:141] Setting up conv1
I0412 21:13:27.796129 172649 net.cpp:148] Top shape: 100 32 32 32 (3276800)
I0412 21:13:27.796140 172649 net.cpp:156] Memory required for data: 14336400
I0412 21:13:27.796197 172649 layer_factory.hpp:77] Creating layer pool1
I0412 21:13:27.796219 172649 net.cpp:91] Creating Layer pool1
I0412 21:13:27.796267 172649 net.cpp:425] pool1 <- conv1
I0412 21:13:27.796289 172649 net.cpp:399] pool1 -> pool1
I0412 21:13:27.802323 172649 net.cpp:141] Setting up pool1
I0412 21:13:27.802366 172649 net.cpp:148] Top shape: 100 32 16 16 (819200)
I0412 21:13:27.802381 172649 net.cpp:156] Memory required for data: 17613200
I0412 21:13:27.802397 172649 layer_factory.hpp:77] Creating layer relu1
I0412 21:13:27.802440 172649 net.cpp:91] Creating Layer relu1
I0412 21:13:27.802461 172649 net.cpp:425] relu1 <- pool1
I0412 21:13:27.802482 172649 net.cpp:386] relu1 -> pool1 (in-place)
I0412 21:13:27.802786 172649 net.cpp:141] Setting up relu1
I0412 21:13:27.802808 172649 net.cpp:148] Top shape: 100 32 16 16 (819200)
I0412 21:13:27.802825 172649 net.cpp:156] Memory required for data: 20890000
I0412 21:13:27.802840 172649 layer_factory.hpp:77] Creating layer conv2
I0412 21:13:27.802868 172649 net.cpp:91] Creating Layer conv2
I0412 21:13:27.802887 172649 net.cpp:425] conv2 <- pool1
I0412 21:13:27.802908 172649 net.cpp:399] conv2 -> conv2
I0412 21:13:27.806911 172649 net.cpp:141] Setting up conv2
I0412 21:13:27.806955 172649 net.cpp:148] Top shape: 100 32 16 16 (819200)
I0412 21:13:27.806977 172649 net.cpp:156] Memory required for data: 24166800
I0412 21:13:27.807008 172649 layer_factory.hpp:77] Creating layer relu2
I0412 21:13:27.807030 172649 net.cpp:91] Creating Layer relu2
I0412 21:13:27.807047 172649 net.cpp:425] relu2 <- conv2
I0412 21:13:27.807065 172649 net.cpp:386] relu2 -> conv2 (in-place)
I0412 21:13:27.807572 172649 net.cpp:141] Setting up relu2
I0412 21:13:27.807591 172649 net.cpp:148] Top shape: 100 32 16 16 (819200)
I0412 21:13:27.807603 172649 net.cpp:156] Memory required for data: 27443600
I0412 21:13:27.807615 172649 layer_factory.hpp:77] Creating layer pool2
I0412 21:13:27.807631 172649 net.cpp:91] Creating Layer pool2
I0412 21:13:27.807642 172649 net.cpp:425] pool2 <- conv2
I0412 21:13:27.807657 172649 net.cpp:399] pool2 -> pool2
I0412 21:13:27.807898 172649 net.cpp:141] Setting up pool2
I0412 21:13:27.807919 172649 net.cpp:148] Top shape: 100 32 8 8 (204800)
I0412 21:13:27.807934 172649 net.cpp:156] Memory required for data: 28262800
I0412 21:13:27.807950 172649 layer_factory.hpp:77] Creating layer conv3
I0412 21:13:27.807972 172649 net.cpp:91] Creating Layer conv3
I0412 21:13:27.807987 172649 net.cpp:425] conv3 <- pool2
I0412 21:13:27.808006 172649 net.cpp:399] conv3 -> conv3
I0412 21:13:27.811619 172649 net.cpp:141] Setting up conv3
I0412 21:13:27.811648 172649 net.cpp:148] Top shape: 100 64 8 8 (409600)
I0412 21:13:27.811660 172649 net.cpp:156] Memory required for data: 29901200
I0412 21:13:27.811679 172649 layer_factory.hpp:77] Creating layer relu3
I0412 21:13:27.811702 172649 net.cpp:91] Creating Layer relu3
I0412 21:13:27.811714 172649 net.cpp:425] relu3 <- conv3
I0412 21:13:27.811727 172649 net.cpp:386] relu3 -> conv3 (in-place)
I0412 21:13:27.811909 172649 net.cpp:141] Setting up relu3
I0412 21:13:27.811924 172649 net.cpp:148] Top shape: 100 64 8 8 (409600)
I0412 21:13:27.811938 172649 net.cpp:156] Memory required for data: 31539600
I0412 21:13:27.811952 172649 layer_factory.hpp:77] Creating layer pool3
I0412 21:13:27.811967 172649 net.cpp:91] Creating Layer pool3
I0412 21:13:27.812007 172649 net.cpp:425] pool3 <- conv3
I0412 21:13:27.812022 172649 net.cpp:399] pool3 -> pool3
I0412 21:13:27.812422 172649 net.cpp:141] Setting up pool3
I0412 21:13:27.812451 172649 net.cpp:148] Top shape: 100 64 4 4 (102400)
I0412 21:13:27.812467 172649 net.cpp:156] Memory required for data: 31949200
I0412 21:13:27.812482 172649 layer_factory.hpp:77] Creating layer ip1
I0412 21:13:27.812501 172649 net.cpp:91] Creating Layer ip1
I0412 21:13:27.812518 172649 net.cpp:425] ip1 <- pool3
I0412 21:13:27.812536 172649 net.cpp:399] ip1 -> ip1
I0412 21:13:27.815601 172649 net.cpp:141] Setting up ip1
I0412 21:13:27.815619 172649 net.cpp:148] Top shape: 100 64 (6400)
I0412 21:13:27.815634 172649 net.cpp:156] Memory required for data: 31974800
I0412 21:13:27.815675 172649 layer_factory.hpp:77] Creating layer ip2
I0412 21:13:27.815702 172649 net.cpp:91] Creating Layer ip2
I0412 21:13:27.815723 172649 net.cpp:425] ip2 <- ip1
I0412 21:13:27.815747 172649 net.cpp:399] ip2 -> ip2
I0412 21:13:27.815902 172649 net.cpp:141] Setting up ip2
I0412 21:13:27.815918 172649 net.cpp:148] Top shape: 100 10 (1000)
I0412 21:13:27.815935 172649 net.cpp:156] Memory required for data: 31978800
I0412 21:13:27.815953 172649 layer_factory.hpp:77] Creating layer loss
I0412 21:13:27.815969 172649 net.cpp:91] Creating Layer loss
I0412 21:13:27.815981 172649 net.cpp:425] loss <- ip2
I0412 21:13:27.815994 172649 net.cpp:425] loss <- label
I0412 21:13:27.816007 172649 net.cpp:399] loss -> loss
I0412 21:13:27.816608 172649 layer_factory.hpp:77] Creating layer loss
…
I0412 21:13:27.817664 172649 solver.cpp:181] Creating test net (#0) specified by net file: examples/cifar10/cifar10_quick_train_test.prototxt
I0412 21:13:27.817705 172649 net.cpp:313] The NetState phase (1) differed from the phase (0) specified by a rule in layer cifar
I0412 21:13:27.817896 172649 net.cpp:49] Initializing net from parameters: 
name: "CIFAR10_quick"
state {
  phase: TEST
}
layer {
  name: "cifar"
  type: "Data"
  top: "data"
  top: "label"
  include {
    phase: TEST
  }
  transform_param {
    mean_file: "examples/cifar10/mean.binaryproto"
  }
  data_param {
    source: "examples/cifar10/cifar10_test_lmdb"
    batch_size: 100
    backend: LMDB
  }
}
layer {
  name: "conv1"
  type: "Convolution"
  bottom: "data"
  top: "conv1"
  param {
    lr_mult: 1
  }
  param {
    lr_mult: 2
  }
  convolution_param {
    num_output: 32
    pad: 2
    kernel_size: 5
    stride: 1
    weight_filler {
      type: "gaussian"
      std: 0.0001
    }
    bias_filler {
      type: "constant"
    }
  }
}
layer {
  name: "pool1"
  type: "Pooling"
  bottom: "conv1"
  top: "pool1"
  pooling_param {
    pool: MAX
    kernel_size: 3
    stride: 2
  }
}
layer {
  name: "relu1"
  type: "ReLU"
  bottom: "pool1"
  top: "pool1"
}
layer {
  name: "conv2"
  type: "Convolution"
  bottom: "pool1"
  top: "conv2"
  param {
    lr_mult: 1
  }
  param {
    lr_mult: 2
  }
  convolution_param {
    num_output: 32
    pad: 2
    kernel_size: 5
    stride: 1
    weight_filler {
      type: "gaussian"
      std: 0.01
    }
    bias_filler {
      type: "constant"
    }
  }
}
layer {
  name: "relu2"
  type: "ReLU"
  bottom: "conv2"
  top: "conv2"
}
layer {
  name: "pool2"
  type: "Pooling"
  bottom: "conv2"
  top: "pool2"
  pooling_param {
    pool: AVE
    kernel_size: 3
    stride: 2
  }
}
layer {
  name: "conv3"
  type: "Convolution"
  bottom: "pool2"
  top: "conv3"
  param {
    lr_mult: 1
  }
  param {
    lr_mult: 2
  }
  convolution_param {
    num_output: 64
    pad: 2
    kernel_size: 5
    stride: 1
    weight_filler {
      type: "gaussian"
      std: 0.01
    }
    bias_filler {
      type: "constant"
    }
  }
}
layer {
  name: "relu3"
  type: "ReLU"
  bottom: "conv3"
  top: "conv3"
}
layer {
  name: "pool3"
  type: "Pooling"
  bottom: "conv3"
  top: "pool3"
  pooling_param {
    pool: AVE
    kernel_size: 3
    stride: 2
  }
}
layer {
  name: "ip1"
  type: "InnerProduct"
  bottom: "pool3"
  top: "ip1"
  param {
    lr_mult: 1
  }
  param {
    lr_mult: 2
  }
  inner_product_param {
    num_output: 64
    weight_filler {
      type: "gaussian"
      std: 0.1
    }
    bias_filler {
      type: "constant"
    }
  }
}
layer {
  name: "ip2"
  type: "InnerProduct"
  bottom: "ip1"
  top: "ip2"
  param {
    lr_mult: 1
  }
  param {
    lr_mult: 2
  }
  inner_product_param {
    num_output: 10
    weight_filler {
      type: "gaussian"
      std: 0.1
    }
    bias_filler {
      type: "constant"
    }
  }
}
layer {
  name: "accuracy"
  type: "Accuracy"
  bottom: "ip2"
  bottom: "label"
  top: "accuracy"
  include {
    phase: TEST
  }
}
layer {
  name: "loss"
  type: "SoftmaxWithLoss"
  bottom: "ip2"
  bottom: "label"
  top: "loss"
}
I0412 21:13:27.819648 172649 layer_factory.hpp:77] Creating layer cifar
I0412 21:13:27.819785 172649 net.cpp:91] Creating Layer cifar
I0412 21:13:27.819805 172649 net.cpp:399] cifar -> data
I0412 21:13:27.819828 172649 net.cpp:399] cifar -> label
I0412 21:13:27.819851 172649 data_transformer.cpp:25] Loading mean file from: examples/cifar10/mean.binaryproto
I0412 21:13:27.849045 172655 db_lmdb.cpp:38] Opened lmdb examples/cifar10/cifar10_test_lmdb
I0412 21:13:27.859458 172649 data_layer.cpp:41] output data size: 100,3,32,32
I0412 21:13:27.863838 172649 net.cpp:141] Setting up cifar
I0412 21:13:27.863880 172649 net.cpp:148] Top shape: 100 3 32 32 (307200)
I0412 21:13:27.863934 172649 net.cpp:148] Top shape: 100 (100)
I0412 21:13:27.863947 172649 net.cpp:156] Memory required for data: 1229200
I0412 21:13:27.863965 172649 layer_factory.hpp:77] Creating layer label_cifar_1_split
I0412 21:13:27.863991 172649 net.cpp:91] Creating Layer label_cifar_1_split
I0412 21:13:27.864012 172649 net.cpp:425] label_cifar_1_split <- label
I0412 21:13:27.864028 172649 net.cpp:399] label_cifar_1_split -> label_cifar_1_split_0
I0412 21:13:27.864054 172649 net.cpp:399] label_cifar_1_split -> label_cifar_1_split_1
I0412 21:13:27.864130 172649 net.cpp:141] Setting up label_cifar_1_split
I0412 21:13:27.864146 172649 net.cpp:148] Top shape: 100 (100)
I0412 21:13:27.864162 172649 net.cpp:148] Top shape: 100 (100)
I0412 21:13:27.864176 172649 net.cpp:156] Memory required for data: 1230000
I0412 21:13:27.864200 172649 layer_factory.hpp:77] Creating layer conv1
I0412 21:13:27.864228 172649 net.cpp:91] Creating Layer conv1
I0412 21:13:27.864241 172649 net.cpp:425] conv1 <- data
I0412 21:13:27.864255 172649 net.cpp:399] conv1 -> conv1
I0412 21:13:27.867153 172649 net.cpp:141] Setting up conv1
I0412 21:13:27.867205 172649 net.cpp:148] Top shape: 100 32 32 32 (3276800)
I0412 21:13:27.867228 172649 net.cpp:156] Memory required for data: 14337200
I0412 21:13:27.867256 172649 layer_factory.hpp:77] Creating layer pool1
I0412 21:13:27.867324 172649 net.cpp:91] Creating Layer pool1
I0412 21:13:27.867341 172649 net.cpp:425] pool1 <- conv1
I0412 21:13:27.867360 172649 net.cpp:399] pool1 -> pool1
I0412 21:13:27.867431 172649 net.cpp:141] Setting up pool1
I0412 21:13:27.867450 172649 net.cpp:148] Top shape: 100 32 16 16 (819200)
I0412 21:13:27.867473 172649 net.cpp:156] Memory required for data: 17614000
I0412 21:13:27.867488 172649 layer_factory.hpp:77] Creating layer relu1
I0412 21:13:27.867507 172649 net.cpp:91] Creating Layer relu1
I0412 21:13:27.867525 172649 net.cpp:425] relu1 <- pool1
I0412 21:13:27.867545 172649 net.cpp:386] relu1 -> pool1 (in-place)
I0412 21:13:27.868233 172649 net.cpp:141] Setting up relu1
I0412 21:13:27.868265 172649 net.cpp:148] Top shape: 100 32 16 16 (819200)
I0412 21:13:27.868283 172649 net.cpp:156] Memory required for data: 20890800
I0412 21:13:27.868309 172649 layer_factory.hpp:77] Creating layer conv2
I0412 21:13:27.868350 172649 net.cpp:91] Creating Layer conv2
I0412 21:13:27.868369 172649 net.cpp:425] conv2 <- pool1
I0412 21:13:27.868392 172649 net.cpp:399] conv2 -> conv2
I0412 21:13:27.871945 172649 net.cpp:141] Setting up conv2
I0412 21:13:27.871985 172649 net.cpp:148] Top shape: 100 32 16 16 (819200)
I0412 21:13:27.871997 172649 net.cpp:156] Memory required for data: 24167600
I0412 21:13:27.872023 172649 layer_factory.hpp:77] Creating layer relu2
I0412 21:13:27.872046 172649 net.cpp:91] Creating Layer relu2
I0412 21:13:27.872061 172649 net.cpp:425] relu2 <- conv2
I0412 21:13:27.872079 172649 net.cpp:386] relu2 -> conv2 (in-place)
I0412 21:13:27.872411 172649 net.cpp:141] Setting up relu2
I0412 21:13:27.872429 172649 net.cpp:148] Top shape: 100 32 16 16 (819200)
I0412 21:13:27.872443 172649 net.cpp:156] Memory required for data: 27444400
I0412 21:13:27.872458 172649 layer_factory.hpp:77] Creating layer pool2
I0412 21:13:27.872475 172649 net.cpp:91] Creating Layer pool2
I0412 21:13:27.872489 172649 net.cpp:425] pool2 <- conv2
I0412 21:13:27.872505 172649 net.cpp:399] pool2 -> pool2
I0412 21:13:27.872979 172649 net.cpp:141] Setting up pool2
I0412 21:13:27.873003 172649 net.cpp:148] Top shape: 100 32 8 8 (204800)
I0412 21:13:27.873019 172649 net.cpp:156] Memory required for data: 28263600
I0412 21:13:27.873034 172649 layer_factory.hpp:77] Creating layer conv3
I0412 21:13:27.873064 172649 net.cpp:91] Creating Layer conv3
I0412 21:13:27.873081 172649 net.cpp:425] conv3 <- pool2
I0412 21:13:27.873103 172649 net.cpp:399] conv3 -> conv3
I0412 21:13:27.877599 172649 net.cpp:141] Setting up conv3
I0412 21:13:27.877640 172649 net.cpp:148] Top shape: 100 64 8 8 (409600)
I0412 21:13:27.877651 172649 net.cpp:156] Memory required for data: 29902000
I0412 21:13:27.877671 172649 layer_factory.hpp:77] Creating layer relu3
I0412 21:13:27.877694 172649 net.cpp:91] Creating Layer relu3
I0412 21:13:27.877709 172649 net.cpp:425] relu3 <- conv3
I0412 21:13:27.877722 172649 net.cpp:386] relu3 -> conv3 (in-place)
I0412 21:13:27.877933 172649 net.cpp:141] Setting up relu3
I0412 21:13:27.877948 172649 net.cpp:148] Top shape: 100 64 8 8 (409600)
I0412 21:13:27.877962 172649 net.cpp:156] Memory required for data: 31540400
I0412 21:13:27.877977 172649 layer_factory.hpp:77] Creating layer pool3
I0412 21:13:27.877997 172649 net.cpp:91] Creating Layer pool3
I0412 21:13:27.878010 172649 net.cpp:425] pool3 <- conv3
I0412 21:13:27.878026 172649 net.cpp:399] pool3 -> pool3
I0412 21:13:27.878463 172649 net.cpp:141] Setting up pool3
I0412 21:13:27.878485 172649 net.cpp:148] Top shape: 100 64 4 4 (102400)
I0412 21:13:27.878500 172649 net.cpp:156] Memory required for data: 31950000
I0412 21:13:27.878515 172649 layer_factory.hpp:77] Creating layer ip1
I0412 21:13:27.878531 172649 net.cpp:91] Creating Layer ip1
I0412 21:13:27.878545 172649 net.cpp:425] ip1 <- pool3
I0412 21:13:27.878563 172649 net.cpp:399] ip1 -> ip1
I0412 21:13:27.882444 172649 net.cpp:141] Setting up ip1
I0412 21:13:27.882472 172649 net.cpp:148] Top shape: 100 64 (6400)
I0412 21:13:27.882493 172649 net.cpp:156] Memory required for data: 31975600
I0412 21:13:27.882514 172649 layer_factory.hpp:77] Creating layer ip2
I0412 21:13:27.882568 172649 net.cpp:91] Creating Layer ip2
I0412 21:13:27.882586 172649 net.cpp:425] ip2 <- ip1
I0412 21:13:27.882611 172649 net.cpp:399] ip2 -> ip2
I0412 21:13:27.882812 172649 net.cpp:141] Setting up ip2
I0412 21:13:27.882834 172649 net.cpp:148] Top shape: 100 10 (1000)
I0412 21:13:27.882853 172649 net.cpp:156] Memory required for data: 31979600
I0412 21:13:27.882879 172649 layer_factory.hpp:77] Creating layer ip2_ip2_0_split
I0412 21:13:27.882902 172649 net.cpp:91] Creating Layer ip2_ip2_0_split
I0412 21:13:27.882917 172649 net.cpp:425] ip2_ip2_0_split <- ip2
I0412 21:13:27.882936 172649 net.cpp:399] ip2_ip2_0_split -> ip2_ip2_0_split_0
I0412 21:13:27.882957 172649 net.cpp:399] ip2_ip2_0_split -> ip2_ip2_0_split_1
I0412 21:13:27.883023 172649 net.cpp:141] Setting up ip2_ip2_0_split
I0412 21:13:27.883044 172649 net.cpp:148] Top shape: 100 10 (1000)
I0412 21:13:27.883064 172649 net.cpp:148] Top shape: 100 10 (1000)
I0412 21:13:27.883080 172649 net.cpp:156] Memory required for data: 31987600
I0412 21:13:27.883097 172649 layer_factory.hpp:77] Creating layer accuracy
I0412 21:13:27.883170 172649 net.cpp:91] Creating Layer accuracy
I0412 21:13:27.883198 172649 net.cpp:425] accuracy <- ip2_ip2_0_split_0
I0412 21:13:27.883218 172649 net.cpp:425] accuracy <- label_cifar_1_split_0
I0412 21:13:27.883237 172649 net.cpp:399] accuracy -> accuracy
…
