…
I0425 22:39:42.340212 209968 net.cpp:313] The NetState phase (0) differed from the phase (1) specified by a rule in layer accuracy
I0425 22:39:42.340593 209968 net.cpp:49] Initializing net from parameters: 
name: "CIFAR_full"
state {
  phase: TRAIN
}
layer {
  name: "cifar"
  type: "Data"
  top: "data"
  top: "label"
  include {
    phase: TRAIN
  }
  transform_param {
    mean_file: "/home/abaybektursun/projects/GitHub/IndependentStudy/source/data/mean.binaryproto"
  }
  data_param {
    source: "/home/abaybektursun/projects/GitHub/IndependentStudy/source/data/train_lmdb/"
    batch_size: 100
    backend: LMDB
  }
}
layer {
  name: "conv1"
  type: "Convolution"
  bottom: "data"
  top: "conv1"
  param {
    lr_mult: 1
  }
  param {
    lr_mult: 2
  }
  convolution_param {
    num_output: 32
    pad: 2
    kernel_size: 5
    stride: 1
    weight_filler {
      type: "gaussian"
      std: 0.0001
    }
    bias_filler {
      type: "constant"
    }
  }
}
layer {
  name: "pool1"
  type: "Pooling"
  bottom: "conv1"
  top: "pool1"
  pooling_param {
    pool: MAX
    kernel_size: 3
    stride: 2
  }
}
layer {
  name: "relu1"
  type: "ReLU"
  bottom: "pool1"
  top: "pool1"
}
layer {
  name: "norm1"
  type: "LRN"
  bottom: "pool1"
  top: "norm1"
  lrn_param {
    local_size: 3
    alpha: 5e-05
    beta: 0.75
    norm_region: WITHIN_CHANNEL
  }
}
layer {
  name: "conv2"
  type: "Convolution"
  bottom: "norm1"
  top: "conv2"
  param {
    lr_mult: 1
  }
  param {
    lr_mult: 2
  }
  convolution_param {
    num_output: 32
    pad: 2
    kernel_size: 5
    stride: 1
    weight_filler {
      type: "gaussian"
      std: 0.01
    }
    bias_filler {
      type: "constant"
    }
  }
}
layer {
  name: "relu2"
  type: "ReLU"
  bottom: "conv2"
  top: "conv2"
}
layer {
  name: "pool2"
  type: "Pooling"
  bottom: "conv2"
  top: "pool2"
  pooling_param {
    pool: AVE
    kernel_size: 3
    stride: 2
  }
}
layer {
  name: "norm2"
  type: "LRN"
  bottom: "pool2"
  top: "norm2"
  lrn_param {
    local_size: 3
    alpha: 5e-05
    beta: 0.75
    norm_region: WITHIN_CHANNEL
  }
}
layer {
  name: "conv3"
  type: "Convolution"
  bottom: "norm2"
  top: "conv3"
  convolution_param {
    num_output: 64
    pad: 2
    kernel_size: 5
    stride: 1
    weight_filler {
      type: "gaussian"
      std: 0.01
    }
    bias_filler {
      type: "constant"
    }
  }
}
layer {
  name: "relu3"
  type: "ReLU"
  bottom: "conv3"
  top: "conv3"
}
layer {
  name: "pool3"
  type: "Pooling"
  bottom: "conv3"
  top: "pool3"
  pooling_param {
    pool: AVE
    kernel_size: 3
    stride: 2
  }
}
layer {
  name: "ip1"
  type: "InnerProduct"
  bottom: "pool3"
  top: "ip1"
  param {
    lr_mult: 1
    decay_mult: 250
  }
  param {
    lr_mult: 2
    decay_mult: 0
  }
  inner_product_param {
    num_output: 10
    weight_filler {
      type: "gaussian"
      std: 0.01
    }
    bias_filler {
      type: "constant"
    }
  }
}
layer {
  name: "loss"
  type: "SoftmaxWithLoss"
  bottom: "ip1"
  bottom: "label"
  top: "loss"
}
I0425 22:39:42.375123 209968 layer_factory.hpp:77] Creating layer cifar
I0425 22:39:42.376106 209968 net.cpp:91] Creating Layer cifar
I0425 22:39:42.376304 209968 net.cpp:399] cifar -> data
I0425 22:39:42.376552 209968 net.cpp:399] cifar -> label
I0425 22:39:42.376756 209968 data_transformer.cpp:25] Loading mean file from: /home/abaybektursun/projects/GitHub/IndependentStudy/source/data/mean.binaryproto
I0425 22:39:42.381383 209975 db_lmdb.cpp:38] Opened lmdb /home/abaybektursun/projects/GitHub/IndependentStudy/source/data/train_lmdb/
I0425 22:39:42.405133 209968 data_layer.cpp:41] output data size: 100,3,128,128
I0425 22:39:42.460577 209968 net.cpp:141] Setting up cifar
I0425 22:39:42.460813 209968 net.cpp:148] Top shape: 100 3 128 128 (4915200)
I0425 22:39:42.461006 209968 net.cpp:148] Top shape: 100 (100)
I0425 22:39:42.461226 209968 net.cpp:156] Memory required for data: 19661200
I0425 22:39:42.461442 209968 layer_factory.hpp:77] Creating layer conv1
I0425 22:39:42.461655 209968 net.cpp:91] Creating Layer conv1
I0425 22:39:42.461849 209968 net.cpp:425] conv1 <- data
I0425 22:39:42.462064 209968 net.cpp:399] conv1 -> conv1
I0425 22:39:42.592491 209976 blocking_queue.cpp:50] Waiting for data
I0425 22:39:42.850985 209968 net.cpp:141] Setting up conv1
I0425 22:39:42.851188 209968 net.cpp:148] Top shape: 100 32 128 128 (52428800)
I0425 22:39:42.851382 209968 net.cpp:156] Memory required for data: 229376400
I0425 22:39:42.851583 209968 layer_factory.hpp:77] Creating layer pool1
I0425 22:39:42.851773 209968 net.cpp:91] Creating Layer pool1
I0425 22:39:42.851951 209968 net.cpp:425] pool1 <- conv1
I0425 22:39:42.852128 209968 net.cpp:399] pool1 -> pool1
I0425 22:39:42.852356 209968 net.cpp:141] Setting up pool1
I0425 22:39:42.852530 209968 net.cpp:148] Top shape: 100 32 64 64 (13107200)
I0425 22:39:42.852705 209968 net.cpp:156] Memory required for data: 281805200
I0425 22:39:42.852880 209968 layer_factory.hpp:77] Creating layer relu1
I0425 22:39:42.853056 209968 net.cpp:91] Creating Layer relu1
I0425 22:39:42.853229 209968 net.cpp:425] relu1 <- pool1
I0425 22:39:42.853406 209968 net.cpp:386] relu1 -> pool1 (in-place)
I0425 22:39:42.853762 209968 net.cpp:141] Setting up relu1
I0425 22:39:42.853937 209968 net.cpp:148] Top shape: 100 32 64 64 (13107200)
I0425 22:39:42.854111 209968 net.cpp:156] Memory required for data: 334234000
I0425 22:39:42.854285 209968 layer_factory.hpp:77] Creating layer norm1
I0425 22:39:42.854480 209968 net.cpp:91] Creating Layer norm1
I0425 22:39:42.854652 209968 net.cpp:425] norm1 <- pool1
I0425 22:39:42.854828 209968 net.cpp:399] norm1 -> norm1
I0425 22:39:42.855880 209968 net.cpp:141] Setting up norm1
I0425 22:39:42.856057 209968 net.cpp:148] Top shape: 100 32 64 64 (13107200)
I0425 22:39:42.856231 209968 net.cpp:156] Memory required for data: 386662800
I0425 22:39:42.856411 209968 layer_factory.hpp:77] Creating layer conv2
I0425 22:39:42.856593 209968 net.cpp:91] Creating Layer conv2
I0425 22:39:42.856766 209968 net.cpp:425] conv2 <- norm1
I0425 22:39:42.856942 209968 net.cpp:399] conv2 -> conv2
I0425 22:39:42.859516 209968 net.cpp:141] Setting up conv2
I0425 22:39:42.859694 209968 net.cpp:148] Top shape: 100 32 64 64 (13107200)
I0425 22:39:42.859869 209968 net.cpp:156] Memory required for data: 439091600
I0425 22:39:42.860046 209968 layer_factory.hpp:77] Creating layer relu2
I0425 22:39:42.860222 209968 net.cpp:91] Creating Layer relu2
I0425 22:39:42.860399 209968 net.cpp:425] relu2 <- conv2
I0425 22:39:42.860584 209968 net.cpp:386] relu2 -> conv2 (in-place)
I0425 22:39:42.860927 209968 net.cpp:141] Setting up relu2
I0425 22:39:42.861102 209968 net.cpp:148] Top shape: 100 32 64 64 (13107200)
I0425 22:39:42.861276 209968 net.cpp:156] Memory required for data: 491520400
I0425 22:39:42.861452 209968 layer_factory.hpp:77] Creating layer pool2
I0425 22:39:42.861629 209968 net.cpp:91] Creating Layer pool2
I0425 22:39:42.861799 209968 net.cpp:425] pool2 <- conv2
I0425 22:39:42.861971 209968 net.cpp:399] pool2 -> pool2
I0425 22:39:42.862498 209968 net.cpp:141] Setting up pool2
I0425 22:39:42.862671 209968 net.cpp:148] Top shape: 100 32 32 32 (3276800)
I0425 22:39:42.862843 209968 net.cpp:156] Memory required for data: 504627600
I0425 22:39:42.863015 209968 layer_factory.hpp:77] Creating layer norm2
I0425 22:39:42.863189 209968 net.cpp:91] Creating Layer norm2
I0425 22:39:42.863364 209968 net.cpp:425] norm2 <- pool2
I0425 22:39:42.863536 209968 net.cpp:399] norm2 -> norm2
I0425 22:39:42.864305 209968 net.cpp:141] Setting up norm2
I0425 22:39:42.864506 209968 net.cpp:148] Top shape: 100 32 32 32 (3276800)
I0425 22:39:42.864678 209968 net.cpp:156] Memory required for data: 517734800
I0425 22:39:42.864850 209968 layer_factory.hpp:77] Creating layer conv3
I0425 22:39:42.865026 209968 net.cpp:91] Creating Layer conv3
I0425 22:39:42.865200 209968 net.cpp:425] conv3 <- norm2
I0425 22:39:42.865376 209968 net.cpp:399] conv3 -> conv3
I0425 22:39:42.869616 209968 net.cpp:141] Setting up conv3
I0425 22:39:42.869796 209968 net.cpp:148] Top shape: 100 64 32 32 (6553600)
I0425 22:39:42.869969 209968 net.cpp:156] Memory required for data: 543949200
I0425 22:39:42.870151 209968 layer_factory.hpp:77] Creating layer relu3
I0425 22:39:42.870337 209968 net.cpp:91] Creating Layer relu3
I0425 22:39:42.870549 209968 net.cpp:425] relu3 <- conv3
I0425 22:39:42.870726 209968 net.cpp:386] relu3 -> conv3 (in-place)
I0425 22:39:42.871090 209968 net.cpp:141] Setting up relu3
I0425 22:39:42.871265 209968 net.cpp:148] Top shape: 100 64 32 32 (6553600)
I0425 22:39:42.871444 209968 net.cpp:156] Memory required for data: 570163600
I0425 22:39:42.871649 209968 layer_factory.hpp:77] Creating layer pool3
I0425 22:39:42.871825 209968 net.cpp:91] Creating Layer pool3
I0425 22:39:42.871999 209968 net.cpp:425] pool3 <- conv3
I0425 22:39:42.872174 209968 net.cpp:399] pool3 -> pool3
I0425 22:39:42.872745 209968 net.cpp:141] Setting up pool3
I0425 22:39:42.872943 209968 net.cpp:148] Top shape: 100 64 16 16 (1638400)
I0425 22:39:42.873119 209968 net.cpp:156] Memory required for data: 576717200
I0425 22:39:42.873299 209968 layer_factory.hpp:77] Creating layer ip1
I0425 22:39:42.873481 209968 net.cpp:91] Creating Layer ip1
I0425 22:39:42.873656 209968 net.cpp:425] ip1 <- pool3
I0425 22:39:42.873850 209968 net.cpp:399] ip1 -> ip1
I0425 22:39:42.882015 209968 net.cpp:141] Setting up ip1
I0425 22:39:42.882195 209968 net.cpp:148] Top shape: 100 10 (1000)
I0425 22:39:42.882372 209968 net.cpp:156] Memory required for data: 576721200
I0425 22:39:42.882550 209968 layer_factory.hpp:77] Creating layer loss
I0425 22:39:42.882736 209968 net.cpp:91] Creating Layer loss
I0425 22:39:42.882936 209968 net.cpp:425] loss <- ip1
I0425 22:39:42.883108 209968 net.cpp:425] loss <- label
I0425 22:39:42.883283 209968 net.cpp:399] loss -> loss
I0425 22:39:42.883476 209968 layer_factory.hpp:77] Creating layer loss
…
I0425 22:39:42.888622 209968 net.cpp:313] The NetState phase (1) differed from the phase (0) specified by a rule in layer cifar
I0425 22:39:42.889026 209968 net.cpp:49] Initializing net from parameters: 
name: "CIFAR_full"
state {
  phase: TEST
}
layer {
  name: "cifar"
  type: "Data"
  top: "data"
  top: "label"
  include {
    phase: TEST
  }
  transform_param {
    mean_file: "/home/abaybektursun/projects/GitHub/IndependentStudy/source/data/mean.binaryproto"
  }
  data_param {
    source: "/home/abaybektursun/projects/GitHub/IndependentStudy/source/data/test_lmdb/"
    batch_size: 100
    backend: LMDB
  }
}
layer {
  name: "conv1"
  type: "Convolution"
  bottom: "data"
  top: "conv1"
  param {
    lr_mult: 1
  }
  param {
    lr_mult: 2
  }
  convolution_param {
    num_output: 32
    pad: 2
    kernel_size: 5
    stride: 1
    weight_filler {
      type: "gaussian"
      std: 0.0001
    }
    bias_filler {
      type: "constant"
    }
  }
}
layer {
  name: "pool1"
  type: "Pooling"
  bottom: "conv1"
  top: "pool1"
  pooling_param {
    pool: MAX
    kernel_size: 3
    stride: 2
  }
}
layer {
  name: "relu1"
  type: "ReLU"
  bottom: "pool1"
  top: "pool1"
}
layer {
  name: "norm1"
  type: "LRN"
  bottom: "pool1"
  top: "norm1"
  lrn_param {
    local_size: 3
    alpha: 5e-05
    beta: 0.75
    norm_region: WITHIN_CHANNEL
  }
}
layer {
  name: "conv2"
  type: "Convolution"
  bottom: "norm1"
  top: "conv2"
  param {
    lr_mult: 1
  }
  param {
    lr_mult: 2
  }
  convolution_param {
    num_output: 32
    pad: 2
    kernel_size: 5
    stride: 1
    weight_filler {
      type: "gaussian"
      std: 0.01
    }
    bias_filler {
      type: "constant"
    }
  }
}
layer {
  name: "relu2"
  type: "ReLU"
  bottom: "conv2"
  top: "conv2"
}
layer {
  name: "pool2"
  type: "Pooling"
  bottom: "conv2"
  top: "pool2"
  pooling_param {
    pool: AVE
    kernel_size: 3
    stride: 2
  }
}
layer {
  name: "norm2"
  type: "LRN"
  bottom: "pool2"
  top: "norm2"
  lrn_param {
    local_size: 3
    alpha: 5e-05
    beta: 0.75
    norm_region: WITHIN_CHANNEL
  }
}
layer {
  name: "conv3"
  type: "Convolution"
  bottom: "norm2"
  top: "conv3"
  convolution_param {
    num_output: 64
    pad: 2
    kernel_size: 5
    stride: 1
    weight_filler {
      type: "gaussian"
      std: 0.01
    }
    bias_filler {
      type: "constant"
    }
  }
}
layer {
  name: "relu3"
  type: "ReLU"
  bottom: "conv3"
  top: "conv3"
}
layer {
  name: "pool3"
  type: "Pooling"
  bottom: "conv3"
  top: "pool3"
  pooling_param {
    pool: AVE
    kernel_size: 3
    stride: 2
  }
}
layer {
  name: "ip1"
  type: "InnerProduct"
  bottom: "pool3"
  top: "ip1"
  param {
    lr_mult: 1
    decay_mult: 250
  }
  param {
    lr_mult: 2
    decay_mult: 0
  }
  inner_product_param {
    num_output: 10
    weight_filler {
      type: "gaussian"
      std: 0.01
    }
    bias_filler {
      type: "constant"
    }
  }
}
layer {
  name: "accuracy"
  type: "Accuracy"
  bottom: "ip1"
  bottom: "label"
  top: "accuracy"
  include {
    phase: TEST
  }
}
layer {
  name: "loss"
  type: "SoftmaxWithLoss"
  bottom: "ip1"
  bottom: "label"
  top: "loss"
}
I0425 22:39:42.926988 209968 layer_factory.hpp:77] Creating layer cifar
I0425 22:39:42.927276 209968 net.cpp:91] Creating Layer cifar
I0425 22:39:42.927454 209968 net.cpp:399] cifar -> data
I0425 22:39:42.927670 209968 net.cpp:399] cifar -> label
I0425 22:39:42.927891 209968 data_transformer.cpp:25] Loading mean file from: /home/abaybektursun/projects/GitHub/IndependentStudy/source/data/mean.binaryproto
I0425 22:39:42.936833 209977 db_lmdb.cpp:38] Opened lmdb /home/abaybektursun/projects/GitHub/IndependentStudy/source/data/test_lmdb/
I0425 22:39:42.958210 209968 data_layer.cpp:41] output data size: 100,3,128,128
I0425 22:39:43.014600 209968 net.cpp:141] Setting up cifar
I0425 22:39:43.014819 209968 net.cpp:148] Top shape: 100 3 128 128 (4915200)
I0425 22:39:43.015027 209968 net.cpp:148] Top shape: 100 (100)
I0425 22:39:43.015254 209968 net.cpp:156] Memory required for data: 19661200
I0425 22:39:43.015449 209968 layer_factory.hpp:77] Creating layer label_cifar_1_split
I0425 22:39:43.015734 209968 net.cpp:91] Creating Layer label_cifar_1_split
I0425 22:39:43.015936 209968 net.cpp:425] label_cifar_1_split <- label
I0425 22:39:43.016182 209968 net.cpp:399] label_cifar_1_split -> label_cifar_1_split_0
I0425 22:39:43.016499 209968 net.cpp:399] label_cifar_1_split -> label_cifar_1_split_1
I0425 22:39:43.018894 209968 net.cpp:141] Setting up label_cifar_1_split
I0425 22:39:43.019083 209968 net.cpp:148] Top shape: 100 (100)
I0425 22:39:43.019258 209968 net.cpp:148] Top shape: 100 (100)
I0425 22:39:43.019439 209968 net.cpp:156] Memory required for data: 19662000
I0425 22:39:43.019616 209968 layer_factory.hpp:77] Creating layer conv1
I0425 22:39:43.019804 209968 net.cpp:91] Creating Layer conv1
I0425 22:39:43.019979 209968 net.cpp:425] conv1 <- data
I0425 22:39:43.020162 209968 net.cpp:399] conv1 -> conv1
I0425 22:39:43.021625 209968 net.cpp:141] Setting up conv1
I0425 22:39:43.021805 209968 net.cpp:148] Top shape: 100 32 128 128 (52428800)
I0425 22:39:43.021980 209968 net.cpp:156] Memory required for data: 229377200
I0425 22:39:43.022161 209968 layer_factory.hpp:77] Creating layer pool1
I0425 22:39:43.022347 209968 net.cpp:91] Creating Layer pool1
I0425 22:39:43.022522 209968 net.cpp:425] pool1 <- conv1
I0425 22:39:43.022698 209968 net.cpp:399] pool1 -> pool1
I0425 22:39:43.022909 209968 net.cpp:141] Setting up pool1
I0425 22:39:43.023085 209968 net.cpp:148] Top shape: 100 32 64 64 (13107200)
I0425 22:39:43.023268 209968 net.cpp:156] Memory required for data: 281806000
I0425 22:39:43.023445 209968 layer_factory.hpp:77] Creating layer relu1
I0425 22:39:43.023622 209968 net.cpp:91] Creating Layer relu1
I0425 22:39:43.023795 209968 net.cpp:425] relu1 <- pool1
I0425 22:39:43.023970 209968 net.cpp:386] relu1 -> pool1 (in-place)
I0425 22:39:43.024484 209968 net.cpp:141] Setting up relu1
I0425 22:39:43.024662 209968 net.cpp:148] Top shape: 100 32 64 64 (13107200)
I0425 22:39:43.024835 209968 net.cpp:156] Memory required for data: 334234800
I0425 22:39:43.025009 209968 layer_factory.hpp:77] Creating layer norm1
I0425 22:39:43.025187 209968 net.cpp:91] Creating Layer norm1
I0425 22:39:43.025364 209968 net.cpp:425] norm1 <- pool1
I0425 22:39:43.025538 209968 net.cpp:399] norm1 -> norm1
I0425 22:39:43.026425 209968 net.cpp:141] Setting up norm1
I0425 22:39:43.026609 209968 net.cpp:148] Top shape: 100 32 64 64 (13107200)
I0425 22:39:43.026784 209968 net.cpp:156] Memory required for data: 386663600
I0425 22:39:43.026959 209968 layer_factory.hpp:77] Creating layer conv2
I0425 22:39:43.027139 209968 net.cpp:91] Creating Layer conv2
I0425 22:39:43.027317 209968 net.cpp:425] conv2 <- norm1
I0425 22:39:43.027493 209968 net.cpp:399] conv2 -> conv2
I0425 22:39:43.030026 209968 net.cpp:141] Setting up conv2
I0425 22:39:43.030203 209968 net.cpp:148] Top shape: 100 32 64 64 (13107200)
I0425 22:39:43.030385 209968 net.cpp:156] Memory required for data: 439092400
I0425 22:39:43.030566 209968 layer_factory.hpp:77] Creating layer relu2
I0425 22:39:43.030743 209968 net.cpp:91] Creating Layer relu2
I0425 22:39:43.030916 209968 net.cpp:425] relu2 <- conv2
I0425 22:39:43.031091 209968 net.cpp:386] relu2 -> conv2 (in-place)
I0425 22:39:43.031631 209968 net.cpp:141] Setting up relu2
I0425 22:39:43.031812 209968 net.cpp:148] Top shape: 100 32 64 64 (13107200)
I0425 22:39:43.031987 209968 net.cpp:156] Memory required for data: 491521200
I0425 22:39:43.032160 209968 layer_factory.hpp:77] Creating layer pool2
I0425 22:39:43.032341 209968 net.cpp:91] Creating Layer pool2
I0425 22:39:43.032515 209968 net.cpp:425] pool2 <- conv2
I0425 22:39:43.032690 209968 net.cpp:399] pool2 -> pool2
I0425 22:39:43.033263 209968 net.cpp:141] Setting up pool2
I0425 22:39:43.033444 209968 net.cpp:148] Top shape: 100 32 32 32 (3276800)
I0425 22:39:43.033617 209968 net.cpp:156] Memory required for data: 504628400
I0425 22:39:43.033792 209968 layer_factory.hpp:77] Creating layer norm2
I0425 22:39:43.033968 209968 net.cpp:91] Creating Layer norm2
I0425 22:39:43.034142 209968 net.cpp:425] norm2 <- pool2
I0425 22:39:43.034325 209968 net.cpp:399] norm2 -> norm2
I0425 22:39:43.035342 209968 net.cpp:141] Setting up norm2
I0425 22:39:43.035531 209968 net.cpp:148] Top shape: 100 32 32 32 (3276800)
I0425 22:39:43.035735 209968 net.cpp:156] Memory required for data: 517735600
I0425 22:39:43.035910 209968 layer_factory.hpp:77] Creating layer conv3
I0425 22:39:43.036092 209968 net.cpp:91] Creating Layer conv3
I0425 22:39:43.036267 209968 net.cpp:425] conv3 <- norm2
I0425 22:39:43.036448 209968 net.cpp:399] conv3 -> conv3
I0425 22:39:43.040240 209968 net.cpp:141] Setting up conv3
I0425 22:39:43.040532 209968 net.cpp:148] Top shape: 100 64 32 32 (6553600)
I0425 22:39:43.041180 209968 net.cpp:156] Memory required for data: 543950000
I0425 22:39:43.041790 209968 layer_factory.hpp:77] Creating layer relu3
I0425 22:39:43.042495 209968 net.cpp:91] Creating Layer relu3
I0425 22:39:43.043031 209968 net.cpp:425] relu3 <- conv3
I0425 22:39:43.043824 209968 net.cpp:386] relu3 -> conv3 (in-place)
I0425 22:39:43.047262 209968 net.cpp:141] Setting up relu3
I0425 22:39:43.047477 209968 net.cpp:148] Top shape: 100 64 32 32 (6553600)
I0425 22:39:43.047665 209968 net.cpp:156] Memory required for data: 570164400
I0425 22:39:43.047843 209968 layer_factory.hpp:77] Creating layer pool3
I0425 22:39:43.048024 209968 net.cpp:91] Creating Layer pool3
I0425 22:39:43.048207 209968 net.cpp:425] pool3 <- conv3
I0425 22:39:43.048388 209968 net.cpp:399] pool3 -> pool3
I0425 22:39:43.049016 209968 net.cpp:141] Setting up pool3
I0425 22:39:43.049196 209968 net.cpp:148] Top shape: 100 64 16 16 (1638400)
I0425 22:39:43.049381 209968 net.cpp:156] Memory required for data: 576718000
I0425 22:39:43.049556 209968 layer_factory.hpp:77] Creating layer ip1
I0425 22:39:43.049738 209968 net.cpp:91] Creating Layer ip1
I0425 22:39:43.049916 209968 net.cpp:425] ip1 <- pool3
I0425 22:39:43.050098 209968 net.cpp:399] ip1 -> ip1
I0425 22:39:43.058341 209968 net.cpp:141] Setting up ip1
I0425 22:39:43.058526 209968 net.cpp:148] Top shape: 100 10 (1000)
I0425 22:39:43.058698 209968 net.cpp:156] Memory required for data: 576722000
I0425 22:39:43.058887 209968 layer_factory.hpp:77] Creating layer ip1_ip1_0_split
I0425 22:39:43.059157 209968 net.cpp:91] Creating Layer ip1_ip1_0_split
I0425 22:39:43.059337 209968 net.cpp:425] ip1_ip1_0_split <- ip1
I0425 22:39:43.059515 209968 net.cpp:399] ip1_ip1_0_split -> ip1_ip1_0_split_0
I0425 22:39:43.059697 209968 net.cpp:399] ip1_ip1_0_split -> ip1_ip1_0_split_1
I0425 22:39:43.059916 209968 net.cpp:141] Setting up ip1_ip1_0_split
I0425 22:39:43.060091 209968 net.cpp:148] Top shape: 100 10 (1000)
I0425 22:39:43.060271 209968 net.cpp:148] Top shape: 100 10 (1000)
I0425 22:39:43.060449 209968 net.cpp:156] Memory required for data: 576730000
I0425 22:39:43.060626 209968 layer_factory.hpp:77] Creating layer accuracy
I0425 22:39:43.060811 209968 net.cpp:91] Creating Layer accuracy
I0425 22:39:43.060987 209968 net.cpp:425] accuracy <- ip1_ip1_0_split_0
I0425 22:39:43.061169 209968 net.cpp:425] accuracy <- label_cifar_1_split_0
I0425 22:39:43.061372 209968 net.cpp:399] accuracy -> accuracy
…
