…
I0418 18:48:52.192395 35598 net.cpp:313] The NetState phase (1) differed from the phase (0) specified by a rule in layer cifar
I0418 18:48:52.192613 35598 net.cpp:49] Initializing net from parameters: 
name: "CIFAR_full"
state {
  phase: TEST
}
layer {
  name: "cifar"
  type: "Data"
  top: "data"
  top: "label"
  include {
    phase: TEST
  }
  transform_param {
    mean_file: "/home/abaybektursun/projects/GitHub/IndependentStudy/source/data/mean.binaryproto"
  }
  data_param {
    source: "/home/abaybektursun/projects/GitHub/IndependentStudy/source/data/test_lmdb/"
    batch_size: 100
    backend: LMDB
  }
}
layer {
  name: "conv1"
  type: "Convolution"
  bottom: "data"
  top: "conv1"
  param {
    lr_mult: 1
  }
  param {
    lr_mult: 2
  }
  convolution_param {
    num_output: 32
    pad: 2
    kernel_size: 5
    stride: 1
    weight_filler {
      type: "gaussian"
      std: 0.0001
    }
    bias_filler {
      type: "constant"
    }
  }
}
layer {
  name: "pool1"
  type: "Pooling"
  bottom: "conv1"
  top: "pool1"
  pooling_param {
    pool: MAX
    kernel_size: 3
    stride: 2
  }
}
layer {
  name: "relu1"
  type: "ReLU"
  bottom: "pool1"
  top: "pool1"
}
layer {
  name: "norm1"
  type: "LRN"
  bottom: "pool1"
  top: "norm1"
  lrn_param {
    local_size: 3
    alpha: 5e-05
    beta: 0.75
    norm_region: WITHIN_CHANNEL
  }
}
layer {
  name: "conv2"
  type: "Convolution"
  bottom: "norm1"
  top: "conv2"
  param {
    lr_mult: 1
  }
  param {
    lr_mult: 2
  }
  convolution_param {
    num_output: 32
    pad: 2
    kernel_size: 5
    stride: 1
    weight_filler {
      type: "gaussian"
      std: 0.01
    }
    bias_filler {
      type: "constant"
    }
  }
}
layer {
  name: "relu2"
  type: "ReLU"
  bottom: "conv2"
  top: "conv2"
}
layer {
  name: "pool2"
  type: "Pooling"
  bottom: "conv2"
  top: "pool2"
  pooling_param {
    pool: AVE
    kernel_size: 3
    stride: 2
  }
}
layer {
  name: "norm2"
  type: "LRN"
  bottom: "pool2"
  top: "norm2"
  lrn_param {
    local_size: 3
    alpha: 5e-05
    beta: 0.75
    norm_region: WITHIN_CHANNEL
  }
}
layer {
  name: "conv3"
  type: "Convolution"
  bottom: "norm2"
  top: "conv3"
  convolution_param {
    num_output: 64
    pad: 2
    kernel_size: 5
    stride: 1
    weight_filler {
      type: "gaussian"
      std: 0.01
    }
    bias_filler {
      type: "constant"
    }
  }
}
layer {
  name: "relu3"
  type: "ReLU"
  bottom: "conv3"
  top: "conv3"
}
layer {
  name: "pool3"
  type: "Pooling"
  bottom: "conv3"
  top: "pool3"
  pooling_param {
    pool: AVE
    kernel_size: 3
    stride: 2
  }
}
layer {
  name: "ip1"
  type: "InnerProduct"
  bottom: "pool3"
  top: "ip1"
  param {
    lr_mult: 1
    decay_mult: 250
  }
  param {
    lr_mult: 2
    decay_mult: 0
  }
  inner_product_param {
    num_output: 10
    weight_filler {
      type: "gaussian"
      std: 0.01
    }
    bias_filler {
      type: "constant"
    }
  }
}
layer {
  name: "accuracy"
  type: "Accuracy"
  bottom: "ip1"
  bottom: "label"
  top: "accuracy"
  include {
    phase: TEST
  }
}
layer {
  name: "loss"
  type: "SoftmaxWithLoss"
  bottom: "ip1"
  bottom: "label"
  top: "loss"
}
I0418 18:48:52.194326 35598 layer_factory.hpp:77] Creating layer cifar
I0418 18:48:52.195396 35598 net.cpp:91] Creating Layer cifar
I0418 18:48:52.195421 35598 net.cpp:399] cifar -> data
I0418 18:48:52.195468 35598 net.cpp:399] cifar -> label
I0418 18:48:52.195497 35598 data_transformer.cpp:25] Loading mean file from: /home/abaybektursun/projects/GitHub/IndependentStudy/source/data/mean.binaryproto
I0418 18:48:52.196341 35602 db_lmdb.cpp:38] Opened lmdb /home/abaybektursun/projects/GitHub/IndependentStudy/source/data/test_lmdb/
I0418 18:48:52.196502 35598 data_layer.cpp:41] output data size: 100,3,128,128
I0418 18:48:52.278661 35598 net.cpp:141] Setting up cifar
I0418 18:48:52.278771 35598 net.cpp:148] Top shape: 100 3 128 128 (4915200)
I0418 18:48:52.278789 35598 net.cpp:148] Top shape: 100 (100)
I0418 18:48:52.278800 35598 net.cpp:156] Memory required for data: 19661200
I0418 18:48:52.278826 35598 layer_factory.hpp:77] Creating layer label_cifar_1_split
I0418 18:48:52.278887 35598 net.cpp:91] Creating Layer label_cifar_1_split
I0418 18:48:52.278904 35598 net.cpp:425] label_cifar_1_split <- label
I0418 18:48:52.278930 35598 net.cpp:399] label_cifar_1_split -> label_cifar_1_split_0
I0418 18:48:52.278949 35598 net.cpp:399] label_cifar_1_split -> label_cifar_1_split_1
I0418 18:48:52.278973 35598 net.cpp:141] Setting up label_cifar_1_split
I0418 18:48:52.278988 35598 net.cpp:148] Top shape: 100 (100)
I0418 18:48:52.279008 35598 net.cpp:148] Top shape: 100 (100)
I0418 18:48:52.279019 35598 net.cpp:156] Memory required for data: 19662000
I0418 18:48:52.279032 35598 layer_factory.hpp:77] Creating layer conv1
I0418 18:48:52.279062 35598 net.cpp:91] Creating Layer conv1
I0418 18:48:52.279076 35598 net.cpp:425] conv1 <- data
I0418 18:48:52.279094 35598 net.cpp:399] conv1 -> conv1
I0418 18:48:52.555706 35598 net.cpp:141] Setting up conv1
I0418 18:48:52.555757 35598 net.cpp:148] Top shape: 100 32 128 128 (52428800)
I0418 18:48:52.555769 35598 net.cpp:156] Memory required for data: 229377200
I0418 18:48:52.555819 35598 layer_factory.hpp:77] Creating layer pool1
I0418 18:48:52.555845 35598 net.cpp:91] Creating Layer pool1
I0418 18:48:52.555861 35598 net.cpp:425] pool1 <- conv1
I0418 18:48:52.555904 35598 net.cpp:399] pool1 -> pool1
I0418 18:48:52.555963 35598 net.cpp:141] Setting up pool1
I0418 18:48:52.555979 35598 net.cpp:148] Top shape: 100 32 64 64 (13107200)
I0418 18:48:52.555992 35598 net.cpp:156] Memory required for data: 281806000
I0418 18:48:52.556008 35598 layer_factory.hpp:77] Creating layer relu1
I0418 18:48:52.556035 35598 net.cpp:91] Creating Layer relu1
I0418 18:48:52.556088 35598 net.cpp:425] relu1 <- pool1
I0418 18:48:52.556121 35598 net.cpp:386] relu1 -> pool1 (in-place)
I0418 18:48:52.556416 35598 net.cpp:141] Setting up relu1
I0418 18:48:52.556435 35598 net.cpp:148] Top shape: 100 32 64 64 (13107200)
I0418 18:48:52.556450 35598 net.cpp:156] Memory required for data: 334234800
I0418 18:48:52.556466 35598 layer_factory.hpp:77] Creating layer norm1
I0418 18:48:52.556491 35598 net.cpp:91] Creating Layer norm1
I0418 18:48:52.556505 35598 net.cpp:425] norm1 <- pool1
I0418 18:48:52.556521 35598 net.cpp:399] norm1 -> norm1
I0418 18:48:52.557442 35598 net.cpp:141] Setting up norm1
I0418 18:48:52.557469 35598 net.cpp:148] Top shape: 100 32 64 64 (13107200)
I0418 18:48:52.557479 35598 net.cpp:156] Memory required for data: 386663600
I0418 18:48:52.557490 35598 layer_factory.hpp:77] Creating layer conv2
I0418 18:48:52.557512 35598 net.cpp:91] Creating Layer conv2
I0418 18:48:52.557528 35598 net.cpp:425] conv2 <- norm1
I0418 18:48:52.557540 35598 net.cpp:399] conv2 -> conv2
I0418 18:48:52.559674 35598 net.cpp:141] Setting up conv2
I0418 18:48:52.559705 35598 net.cpp:148] Top shape: 100 32 64 64 (13107200)
I0418 18:48:52.559715 35598 net.cpp:156] Memory required for data: 439092400
I0418 18:48:52.559741 35598 layer_factory.hpp:77] Creating layer relu2
I0418 18:48:52.559756 35598 net.cpp:91] Creating Layer relu2
I0418 18:48:52.559767 35598 net.cpp:425] relu2 <- conv2
I0418 18:48:52.559779 35598 net.cpp:386] relu2 -> conv2 (in-place)
I0418 18:48:52.560142 35598 net.cpp:141] Setting up relu2
I0418 18:48:52.560160 35598 net.cpp:148] Top shape: 100 32 64 64 (13107200)
I0418 18:48:52.560176 35598 net.cpp:156] Memory required for data: 491521200
I0418 18:48:52.560194 35598 layer_factory.hpp:77] Creating layer pool2
I0418 18:48:52.560212 35598 net.cpp:91] Creating Layer pool2
I0418 18:48:52.560227 35598 net.cpp:425] pool2 <- conv2
I0418 18:48:52.560245 35598 net.cpp:399] pool2 -> pool2
I0418 18:48:52.560622 35598 net.cpp:141] Setting up pool2
I0418 18:48:52.560642 35598 net.cpp:148] Top shape: 100 32 32 32 (3276800)
I0418 18:48:52.560653 35598 net.cpp:156] Memory required for data: 504628400
I0418 18:48:52.560667 35598 layer_factory.hpp:77] Creating layer norm2
I0418 18:48:52.560684 35598 net.cpp:91] Creating Layer norm2
I0418 18:48:52.560698 35598 net.cpp:425] norm2 <- pool2
I0418 18:48:52.560715 35598 net.cpp:399] norm2 -> norm2
I0418 18:48:52.561276 35598 net.cpp:141] Setting up norm2
I0418 18:48:52.561326 35598 net.cpp:148] Top shape: 100 32 32 32 (3276800)
I0418 18:48:52.561338 35598 net.cpp:156] Memory required for data: 517735600
I0418 18:48:52.561352 35598 layer_factory.hpp:77] Creating layer conv3
I0418 18:48:52.561369 35598 net.cpp:91] Creating Layer conv3
I0418 18:48:52.561383 35598 net.cpp:425] conv3 <- norm2
I0418 18:48:52.561398 35598 net.cpp:399] conv3 -> conv3
I0418 18:48:52.564481 35598 net.cpp:141] Setting up conv3
I0418 18:48:52.564507 35598 net.cpp:148] Top shape: 100 64 32 32 (6553600)
I0418 18:48:52.564518 35598 net.cpp:156] Memory required for data: 543950000
I0418 18:48:52.564537 35598 layer_factory.hpp:77] Creating layer relu3
I0418 18:48:52.564559 35598 net.cpp:91] Creating Layer relu3
I0418 18:48:52.564576 35598 net.cpp:425] relu3 <- conv3
I0418 18:48:52.564589 35598 net.cpp:386] relu3 -> conv3 (in-place)
I0418 18:48:52.564787 35598 net.cpp:141] Setting up relu3
I0418 18:48:52.564802 35598 net.cpp:148] Top shape: 100 64 32 32 (6553600)
I0418 18:48:52.564816 35598 net.cpp:156] Memory required for data: 570164400
I0418 18:48:52.564827 35598 layer_factory.hpp:77] Creating layer pool3
I0418 18:48:52.564843 35598 net.cpp:91] Creating Layer pool3
I0418 18:48:52.564858 35598 net.cpp:425] pool3 <- conv3
I0418 18:48:52.564872 35598 net.cpp:399] pool3 -> pool3
I0418 18:48:52.565253 35598 net.cpp:141] Setting up pool3
I0418 18:48:52.565271 35598 net.cpp:148] Top shape: 100 64 16 16 (1638400)
I0418 18:48:52.565284 35598 net.cpp:156] Memory required for data: 576718000
I0418 18:48:52.565297 35598 layer_factory.hpp:77] Creating layer ip1
I0418 18:48:52.565318 35598 net.cpp:91] Creating Layer ip1
I0418 18:48:52.565330 35598 net.cpp:425] ip1 <- pool3
I0418 18:48:52.565346 35598 net.cpp:399] ip1 -> ip1
I0418 18:48:52.573117 35598 net.cpp:141] Setting up ip1
I0418 18:48:52.573143 35598 net.cpp:148] Top shape: 100 10 (1000)
I0418 18:48:52.573153 35598 net.cpp:156] Memory required for data: 576722000
I0418 18:48:52.573168 35598 layer_factory.hpp:77] Creating layer ip1_ip1_0_split
I0418 18:48:52.573194 35598 net.cpp:91] Creating Layer ip1_ip1_0_split
I0418 18:48:52.573206 35598 net.cpp:425] ip1_ip1_0_split <- ip1
I0418 18:48:52.573220 35598 net.cpp:399] ip1_ip1_0_split -> ip1_ip1_0_split_0
I0418 18:48:52.573267 35598 net.cpp:399] ip1_ip1_0_split -> ip1_ip1_0_split_1
I0418 18:48:52.573287 35598 net.cpp:141] Setting up ip1_ip1_0_split
I0418 18:48:52.573303 35598 net.cpp:148] Top shape: 100 10 (1000)
I0418 18:48:52.573318 35598 net.cpp:148] Top shape: 100 10 (1000)
I0418 18:48:52.573329 35598 net.cpp:156] Memory required for data: 576730000
I0418 18:48:52.573343 35598 layer_factory.hpp:77] Creating layer accuracy
I0418 18:48:52.573364 35598 net.cpp:91] Creating Layer accuracy
I0418 18:48:52.573376 35598 net.cpp:425] accuracy <- ip1_ip1_0_split_0
I0418 18:48:52.573393 35598 net.cpp:425] accuracy <- label_cifar_1_split_0
I0418 18:48:52.573408 35598 net.cpp:399] accuracy -> accuracy
…
