…
I0418 16:29:32.338965 20084 net.cpp:313] The NetState phase (1) differed from the phase (0) specified by a rule in layer cifar
I0418 16:29:32.339210 20084 net.cpp:49] Initializing net from parameters: 
name: "CIFAR_full"
state {
  phase: TEST
}
layer {
  name: "cifar"
  type: "Data"
  top: "data"
  top: "label"
  include {
    phase: TEST
  }
  transform_param {
    mean_file: "/home/abaybektursun/projects/GitHub/IndependentStudy/source/data/mean.binaryproto"
  }
  data_param {
    source: "/home/abaybektursun/projects/GitHub/IndependentStudy/source/data/test_lmdb/"
    batch_size: 100
    backend: LMDB
  }
}
layer {
  name: "conv1"
  type: "Convolution"
  bottom: "data"
  top: "conv1"
  param {
    lr_mult: 1
  }
  param {
    lr_mult: 2
  }
  convolution_param {
    num_output: 32
    pad: 2
    kernel_size: 5
    stride: 1
    weight_filler {
      type: "gaussian"
      std: 0.0001
    }
    bias_filler {
      type: "constant"
    }
  }
}
layer {
  name: "pool1"
  type: "Pooling"
  bottom: "conv1"
  top: "pool1"
  pooling_param {
    pool: MAX
    kernel_size: 3
    stride: 2
  }
}
layer {
  name: "relu1"
  type: "ReLU"
  bottom: "pool1"
  top: "pool1"
}
layer {
  name: "norm1"
  type: "LRN"
  bottom: "pool1"
  top: "norm1"
  lrn_param {
    local_size: 3
    alpha: 5e-05
    beta: 0.75
    norm_region: WITHIN_CHANNEL
  }
}
layer {
  name: "conv2"
  type: "Convolution"
  bottom: "norm1"
  top: "conv2"
  param {
    lr_mult: 1
  }
  param {
    lr_mult: 2
  }
  convolution_param {
    num_output: 32
    pad: 2
    kernel_size: 5
    stride: 1
    weight_filler {
      type: "gaussian"
      std: 0.01
    }
    bias_filler {
      type: "constant"
    }
  }
}
layer {
  name: "relu2"
  type: "ReLU"
  bottom: "conv2"
  top: "conv2"
}
layer {
  name: "pool2"
  type: "Pooling"
  bottom: "conv2"
  top: "pool2"
  pooling_param {
    pool: AVE
    kernel_size: 3
    stride: 2
  }
}
layer {
  name: "norm2"
  type: "LRN"
  bottom: "pool2"
  top: "norm2"
  lrn_param {
    local_size: 3
    alpha: 5e-05
    beta: 0.75
    norm_region: WITHIN_CHANNEL
  }
}
layer {
  name: "conv3"
  type: "Convolution"
  bottom: "norm2"
  top: "conv3"
  convolution_param {
    num_output: 64
    pad: 2
    kernel_size: 5
    stride: 1
    weight_filler {
      type: "gaussian"
      std: 0.01
    }
    bias_filler {
      type: "constant"
    }
  }
}
layer {
  name: "relu3"
  type: "ReLU"
  bottom: "conv3"
  top: "conv3"
}
layer {
  name: "pool3"
  type: "Pooling"
  bottom: "conv3"
  top: "pool3"
  pooling_param {
    pool: AVE
    kernel_size: 3
    stride: 2
  }
}
layer {
  name: "ip1"
  type: "InnerProduct"
  bottom: "pool3"
  top: "ip1"
  param {
    lr_mult: 1
    decay_mult: 250
  }
  param {
    lr_mult: 2
    decay_mult: 0
  }
  inner_product_param {
    num_output: 10
    weight_filler {
      type: "gaussian"
      std: 0.01
    }
    bias_filler {
      type: "constant"
    }
  }
}
layer {
  name: "accuracy"
  type: "Accuracy"
  bottom: "ip1"
  bottom: "label"
  top: "accuracy"
  include {
    phase: TEST
  }
}
layer {
  name: "loss"
  type: "SoftmaxWithLoss"
  bottom: "ip1"
  bottom: "label"
  top: "loss"
}
I0418 16:29:32.340952 20084 layer_factory.hpp:77] Creating layer cifar
I0418 16:29:32.341972 20084 net.cpp:91] Creating Layer cifar
I0418 16:29:32.342000 20084 net.cpp:399] cifar -> data
I0418 16:29:32.342077 20084 net.cpp:399] cifar -> label
I0418 16:29:32.342105 20084 data_transformer.cpp:25] Loading mean file from: /home/abaybektursun/projects/GitHub/IndependentStudy/source/data/mean.binaryproto
I0418 16:29:32.342974 20088 db_lmdb.cpp:38] Opened lmdb /home/abaybektursun/projects/GitHub/IndependentStudy/source/data/test_lmdb/
I0418 16:29:32.343147 20084 data_layer.cpp:41] output data size: 100,3,128,128
I0418 16:29:32.411640 20084 net.cpp:141] Setting up cifar
I0418 16:29:32.411732 20084 net.cpp:148] Top shape: 100 3 128 128 (4915200)
I0418 16:29:32.411751 20084 net.cpp:148] Top shape: 100 (100)
I0418 16:29:32.411763 20084 net.cpp:156] Memory required for data: 19661200
I0418 16:29:32.411797 20084 layer_factory.hpp:77] Creating layer label_cifar_1_split
I0418 16:29:32.411859 20084 net.cpp:91] Creating Layer label_cifar_1_split
I0418 16:29:32.411876 20084 net.cpp:425] label_cifar_1_split <- label
I0418 16:29:32.411907 20084 net.cpp:399] label_cifar_1_split -> label_cifar_1_split_0
I0418 16:29:32.411927 20084 net.cpp:399] label_cifar_1_split -> label_cifar_1_split_1
I0418 16:29:32.411952 20084 net.cpp:141] Setting up label_cifar_1_split
I0418 16:29:32.411969 20084 net.cpp:148] Top shape: 100 (100)
I0418 16:29:32.411983 20084 net.cpp:148] Top shape: 100 (100)
I0418 16:29:32.411998 20084 net.cpp:156] Memory required for data: 19662000
I0418 16:29:32.412012 20084 layer_factory.hpp:77] Creating layer conv1
I0418 16:29:32.412042 20084 net.cpp:91] Creating Layer conv1
I0418 16:29:32.412055 20084 net.cpp:425] conv1 <- data
I0418 16:29:32.412072 20084 net.cpp:399] conv1 -> conv1
I0418 16:29:32.654646 20084 net.cpp:141] Setting up conv1
I0418 16:29:32.654700 20084 net.cpp:148] Top shape: 100 32 128 128 (52428800)
I0418 16:29:32.654711 20084 net.cpp:156] Memory required for data: 229377200
I0418 16:29:32.654774 20084 layer_factory.hpp:77] Creating layer pool1
I0418 16:29:32.654801 20084 net.cpp:91] Creating Layer pool1
I0418 16:29:32.654817 20084 net.cpp:425] pool1 <- conv1
I0418 16:29:32.654839 20084 net.cpp:399] pool1 -> pool1
I0418 16:29:32.654871 20084 net.cpp:141] Setting up pool1
I0418 16:29:32.654886 20084 net.cpp:148] Top shape: 100 32 64 64 (13107200)
I0418 16:29:32.654899 20084 net.cpp:156] Memory required for data: 281806000
I0418 16:29:32.654914 20084 layer_factory.hpp:77] Creating layer relu1
I0418 16:29:32.654930 20084 net.cpp:91] Creating Layer relu1
I0418 16:29:32.654945 20084 net.cpp:425] relu1 <- pool1
I0418 16:29:32.654961 20084 net.cpp:386] relu1 -> pool1 (in-place)
I0418 16:29:32.655170 20084 net.cpp:141] Setting up relu1
I0418 16:29:32.655189 20084 net.cpp:148] Top shape: 100 32 64 64 (13107200)
I0418 16:29:32.655202 20084 net.cpp:156] Memory required for data: 334234800
I0418 16:29:32.655216 20084 layer_factory.hpp:77] Creating layer norm1
I0418 16:29:32.655243 20084 net.cpp:91] Creating Layer norm1
I0418 16:29:32.655256 20084 net.cpp:425] norm1 <- pool1
I0418 16:29:32.655270 20084 net.cpp:399] norm1 -> norm1
I0418 16:29:32.656111 20084 net.cpp:141] Setting up norm1
I0418 16:29:32.656128 20084 net.cpp:148] Top shape: 100 32 64 64 (13107200)
I0418 16:29:32.656143 20084 net.cpp:156] Memory required for data: 386663600
I0418 16:29:32.656157 20084 layer_factory.hpp:77] Creating layer conv2
I0418 16:29:32.656178 20084 net.cpp:91] Creating Layer conv2
I0418 16:29:32.656196 20084 net.cpp:425] conv2 <- norm1
I0418 16:29:32.656213 20084 net.cpp:399] conv2 -> conv2
I0418 16:29:32.658368 20084 net.cpp:141] Setting up conv2
I0418 16:29:32.658390 20084 net.cpp:148] Top shape: 100 32 64 64 (13107200)
I0418 16:29:32.658401 20084 net.cpp:156] Memory required for data: 439092400
I0418 16:29:32.658421 20084 layer_factory.hpp:77] Creating layer relu2
I0418 16:29:32.658433 20084 net.cpp:91] Creating Layer relu2
I0418 16:29:32.658444 20084 net.cpp:425] relu2 <- conv2
I0418 16:29:32.658455 20084 net.cpp:386] relu2 -> conv2 (in-place)
I0418 16:29:32.658833 20084 net.cpp:141] Setting up relu2
I0418 16:29:32.658850 20084 net.cpp:148] Top shape: 100 32 64 64 (13107200)
I0418 16:29:32.658861 20084 net.cpp:156] Memory required for data: 491521200
I0418 16:29:32.658875 20084 layer_factory.hpp:77] Creating layer pool2
I0418 16:29:32.658895 20084 net.cpp:91] Creating Layer pool2
I0418 16:29:32.658907 20084 net.cpp:425] pool2 <- conv2
I0418 16:29:32.658922 20084 net.cpp:399] pool2 -> pool2
I0418 16:29:32.659309 20084 net.cpp:141] Setting up pool2
I0418 16:29:32.659327 20084 net.cpp:148] Top shape: 100 32 32 32 (3276800)
I0418 16:29:32.659340 20084 net.cpp:156] Memory required for data: 504628400
I0418 16:29:32.659354 20084 layer_factory.hpp:77] Creating layer norm2
I0418 16:29:32.659368 20084 net.cpp:91] Creating Layer norm2
I0418 16:29:32.659381 20084 net.cpp:425] norm2 <- pool2
I0418 16:29:32.659402 20084 net.cpp:399] norm2 -> norm2
I0418 16:29:32.660001 20084 net.cpp:141] Setting up norm2
I0418 16:29:32.660053 20084 net.cpp:148] Top shape: 100 32 32 32 (3276800)
I0418 16:29:32.660063 20084 net.cpp:156] Memory required for data: 517735600
I0418 16:29:32.660071 20084 layer_factory.hpp:77] Creating layer conv3
I0418 16:29:32.660092 20084 net.cpp:91] Creating Layer conv3
I0418 16:29:32.660109 20084 net.cpp:425] conv3 <- norm2
I0418 16:29:32.660122 20084 net.cpp:399] conv3 -> conv3
I0418 16:29:32.663449 20084 net.cpp:141] Setting up conv3
I0418 16:29:32.663472 20084 net.cpp:148] Top shape: 100 64 32 32 (6553600)
I0418 16:29:32.663483 20084 net.cpp:156] Memory required for data: 543950000
I0418 16:29:32.663498 20084 layer_factory.hpp:77] Creating layer relu3
I0418 16:29:32.663511 20084 net.cpp:91] Creating Layer relu3
I0418 16:29:32.663522 20084 net.cpp:425] relu3 <- conv3
I0418 16:29:32.663554 20084 net.cpp:386] relu3 -> conv3 (in-place)
I0418 16:29:32.663753 20084 net.cpp:141] Setting up relu3
I0418 16:29:32.663766 20084 net.cpp:148] Top shape: 100 64 32 32 (6553600)
I0418 16:29:32.663779 20084 net.cpp:156] Memory required for data: 570164400
I0418 16:29:32.663790 20084 layer_factory.hpp:77] Creating layer pool3
I0418 16:29:32.663807 20084 net.cpp:91] Creating Layer pool3
I0418 16:29:32.663821 20084 net.cpp:425] pool3 <- conv3
I0418 16:29:32.663836 20084 net.cpp:399] pool3 -> pool3
I0418 16:29:32.664197 20084 net.cpp:141] Setting up pool3
I0418 16:29:32.664214 20084 net.cpp:148] Top shape: 100 64 16 16 (1638400)
I0418 16:29:32.664227 20084 net.cpp:156] Memory required for data: 576718000
I0418 16:29:32.664240 20084 layer_factory.hpp:77] Creating layer ip1
I0418 16:29:32.664266 20084 net.cpp:91] Creating Layer ip1
I0418 16:29:32.664280 20084 net.cpp:425] ip1 <- pool3
I0418 16:29:32.664307 20084 net.cpp:399] ip1 -> ip1
I0418 16:29:32.672019 20084 net.cpp:141] Setting up ip1
I0418 16:29:32.672051 20084 net.cpp:148] Top shape: 100 10 (1000)
I0418 16:29:32.672061 20084 net.cpp:156] Memory required for data: 576722000
I0418 16:29:32.672078 20084 layer_factory.hpp:77] Creating layer ip1_ip1_0_split
I0418 16:29:32.672092 20084 net.cpp:91] Creating Layer ip1_ip1_0_split
I0418 16:29:32.672107 20084 net.cpp:425] ip1_ip1_0_split <- ip1
I0418 16:29:32.672119 20084 net.cpp:399] ip1_ip1_0_split -> ip1_ip1_0_split_0
I0418 16:29:32.672133 20084 net.cpp:399] ip1_ip1_0_split -> ip1_ip1_0_split_1
I0418 16:29:32.672149 20084 net.cpp:141] Setting up ip1_ip1_0_split
I0418 16:29:32.672163 20084 net.cpp:148] Top shape: 100 10 (1000)
I0418 16:29:32.672178 20084 net.cpp:148] Top shape: 100 10 (1000)
I0418 16:29:32.672193 20084 net.cpp:156] Memory required for data: 576730000
I0418 16:29:32.672207 20084 layer_factory.hpp:77] Creating layer accuracy
I0418 16:29:32.672225 20084 net.cpp:91] Creating Layer accuracy
I0418 16:29:32.672237 20084 net.cpp:425] accuracy <- ip1_ip1_0_split_0
I0418 16:29:32.672250 20084 net.cpp:425] accuracy <- label_cifar_1_split_0
I0418 16:29:32.672267 20084 net.cpp:399] accuracy -> accuracy
…
