…
I0418 06:57:31.650852 522541 net.cpp:313] The NetState phase (0) differed from the phase (1) specified by a rule in layer accuracy
I0418 06:57:31.651160 522541 net.cpp:49] Initializing net from parameters: 
name: "CIFAR_full"
state {
  phase: TRAIN
}
layer {
  name: "cifar"
  type: "Data"
  top: "data"
  top: "label"
  include {
    phase: TRAIN
  }
  transform_param {
    mean_file: "/home/abaybektursun/projects/GitHub/IndependentStudy/source/data/mean.binaryproto"
  }
  data_param {
    source: "/home/abaybektursun/projects/GitHub/IndependentStudy/source/data/train_lmdb/"
    batch_size: 100
    backend: LMDB
  }
}
layer {
  name: "conv1"
  type: "Convolution"
  bottom: "data"
  top: "conv1"
  param {
    lr_mult: 1
  }
  param {
    lr_mult: 2
  }
  convolution_param {
    num_output: 32
    pad: 2
    kernel_size: 5
    stride: 1
    weight_filler {
      type: "gaussian"
      std: 0.0001
    }
    bias_filler {
      type: "constant"
    }
  }
}
layer {
  name: "pool1"
  type: "Pooling"
  bottom: "conv1"
  top: "pool1"
  pooling_param {
    pool: MAX
    kernel_size: 3
    stride: 2
  }
}
layer {
  name: "relu1"
  type: "ReLU"
  bottom: "pool1"
  top: "pool1"
}
layer {
  name: "norm1"
  type: "LRN"
  bottom: "pool1"
  top: "norm1"
  lrn_param {
    local_size: 3
    alpha: 5e-05
    beta: 0.75
    norm_region: WITHIN_CHANNEL
  }
}
layer {
  name: "conv2"
  type: "Convolution"
  bottom: "norm1"
  top: "conv2"
  param {
    lr_mult: 1
  }
  param {
    lr_mult: 2
  }
  convolution_param {
    num_output: 32
    pad: 2
    kernel_size: 5
    stride: 1
    weight_filler {
      type: "gaussian"
      std: 0.01
    }
    bias_filler {
      type: "constant"
    }
  }
}
layer {
  name: "relu2"
  type: "ReLU"
  bottom: "conv2"
  top: "conv2"
}
layer {
  name: "pool2"
  type: "Pooling"
  bottom: "conv2"
  top: "pool2"
  pooling_param {
    pool: AVE
    kernel_size: 3
    stride: 2
  }
}
layer {
  name: "norm2"
  type: "LRN"
  bottom: "pool2"
  top: "norm2"
  lrn_param {
    local_size: 3
    alpha: 5e-05
    beta: 0.75
    norm_region: WITHIN_CHANNEL
  }
}
layer {
  name: "conv3"
  type: "Convolution"
  bottom: "norm2"
  top: "conv3"
  convolution_param {
    num_output: 64
    pad: 2
    kernel_size: 5
    stride: 1
    weight_filler {
      type: "gaussian"
      std: 0.01
    }
    bias_filler {
      type: "constant"
    }
  }
}
layer {
  name: "relu3"
  type: "ReLU"
  bottom: "conv3"
  top: "conv3"
}
layer {
  name: "pool3"
  type: "Pooling"
  bottom: "conv3"
  top: "pool3"
  pooling_param {
    pool: AVE
    kernel_size: 3
    stride: 2
  }
}
layer {
  name: "ip1"
  type: "InnerProduct"
  bottom: "pool3"
  top: "ip1"
  param {
    lr_mult: 1
    decay_mult: 250
  }
  param {
    lr_mult: 2
    decay_mult: 0
  }
  inner_product_param {
    num_output: 10
    weight_filler {
      type: "gaussian"
      std: 0.01
    }
    bias_filler {
      type: "constant"
    }
  }
}
layer {
  name: "loss"
  type: "SoftmaxWithLoss"
  bottom: "ip1"
  bottom: "label"
  top: "loss"
}
I0418 06:57:31.671694 522541 layer_factory.hpp:77] Creating layer cifar
I0418 06:57:31.672240 522541 net.cpp:91] Creating Layer cifar
I0418 06:57:31.672348 522541 net.cpp:399] cifar -> data
I0418 06:57:31.672492 522541 net.cpp:399] cifar -> label
I0418 06:57:31.672624 522541 data_transformer.cpp:25] Loading mean file from: /home/abaybektursun/projects/GitHub/IndependentStudy/source/data/mean.binaryproto
I0418 06:57:31.673228 522547 db_lmdb.cpp:38] Opened lmdb /home/abaybektursun/projects/GitHub/IndependentStudy/source/data/train_lmdb/
I0418 06:57:31.686874 522541 data_layer.cpp:41] output data size: 100,3,128,128
I0418 06:57:31.743875 522541 net.cpp:141] Setting up cifar
I0418 06:57:31.744014 522541 net.cpp:148] Top shape: 100 3 128 128 (4915200)
I0418 06:57:31.744122 522541 net.cpp:148] Top shape: 100 (100)
I0418 06:57:31.744247 522541 net.cpp:156] Memory required for data: 19661200
I0418 06:57:31.744381 522541 layer_factory.hpp:77] Creating layer conv1
I0418 06:57:31.744524 522541 net.cpp:91] Creating Layer conv1
I0418 06:57:31.744626 522541 net.cpp:425] conv1 <- data
I0418 06:57:31.744736 522541 net.cpp:399] conv1 -> conv1
I0418 06:57:31.988999 522541 net.cpp:141] Setting up conv1
I0418 06:57:31.989127 522541 net.cpp:148] Top shape: 100 32 128 128 (52428800)
I0418 06:57:31.989231 522541 net.cpp:156] Memory required for data: 229376400
I0418 06:57:31.989354 522541 layer_factory.hpp:77] Creating layer pool1
I0418 06:57:31.989465 522541 net.cpp:91] Creating Layer pool1
I0418 06:57:31.989565 522541 net.cpp:425] pool1 <- conv1
I0418 06:57:31.989667 522541 net.cpp:399] pool1 -> pool1
I0418 06:57:31.989814 522541 net.cpp:141] Setting up pool1
I0418 06:57:31.989914 522541 net.cpp:148] Top shape: 100 32 64 64 (13107200)
I0418 06:57:31.990015 522541 net.cpp:156] Memory required for data: 281805200
I0418 06:57:31.992194 522541 layer_factory.hpp:77] Creating layer relu1
I0418 06:57:31.992298 522541 net.cpp:91] Creating Layer relu1
I0418 06:57:31.992398 522541 net.cpp:425] relu1 <- pool1
I0418 06:57:31.992497 522541 net.cpp:386] relu1 -> pool1 (in-place)
I0418 06:57:31.992779 522541 net.cpp:141] Setting up relu1
I0418 06:57:31.992879 522541 net.cpp:148] Top shape: 100 32 64 64 (13107200)
I0418 06:57:31.992980 522541 net.cpp:156] Memory required for data: 334234000
I0418 06:57:31.993079 522541 layer_factory.hpp:77] Creating layer norm1
I0418 06:57:31.993191 522541 net.cpp:91] Creating Layer norm1
I0418 06:57:31.993288 522541 net.cpp:425] norm1 <- pool1
I0418 06:57:31.993388 522541 net.cpp:399] norm1 -> norm1
I0418 06:57:31.994359 522541 net.cpp:141] Setting up norm1
I0418 06:57:31.994462 522541 net.cpp:148] Top shape: 100 32 64 64 (13107200)
I0418 06:57:31.994561 522541 net.cpp:156] Memory required for data: 386662800
I0418 06:57:31.994662 522541 layer_factory.hpp:77] Creating layer conv2
I0418 06:57:31.994768 522541 net.cpp:91] Creating Layer conv2
I0418 06:57:31.994868 522541 net.cpp:425] conv2 <- norm1
I0418 06:57:31.994968 522541 net.cpp:399] conv2 -> conv2
I0418 06:57:31.997470 522541 net.cpp:141] Setting up conv2
I0418 06:57:31.997573 522541 net.cpp:148] Top shape: 100 32 64 64 (13107200)
I0418 06:57:31.997673 522541 net.cpp:156] Memory required for data: 439091600
I0418 06:57:31.997777 522541 layer_factory.hpp:77] Creating layer relu2
I0418 06:57:31.997881 522541 net.cpp:91] Creating Layer relu2
I0418 06:57:31.997980 522541 net.cpp:425] relu2 <- conv2
I0418 06:57:31.998080 522541 net.cpp:386] relu2 -> conv2 (in-place)
I0418 06:57:31.998356 522541 net.cpp:141] Setting up relu2
I0418 06:57:31.998456 522541 net.cpp:148] Top shape: 100 32 64 64 (13107200)
I0418 06:57:31.998555 522541 net.cpp:156] Memory required for data: 491520400
I0418 06:57:31.998654 522541 layer_factory.hpp:77] Creating layer pool2
I0418 06:57:31.998756 522541 net.cpp:91] Creating Layer pool2
I0418 06:57:31.998854 522541 net.cpp:425] pool2 <- conv2
I0418 06:57:31.998955 522541 net.cpp:399] pool2 -> pool2
I0418 06:57:31.999410 522541 net.cpp:141] Setting up pool2
I0418 06:57:31.999512 522541 net.cpp:148] Top shape: 100 32 32 32 (3276800)
I0418 06:57:31.999611 522541 net.cpp:156] Memory required for data: 504627600
I0418 06:57:31.999711 522541 layer_factory.hpp:77] Creating layer norm2
I0418 06:57:31.999814 522541 net.cpp:91] Creating Layer norm2
I0418 06:57:31.999912 522541 net.cpp:425] norm2 <- pool2
I0418 06:57:32.000012 522541 net.cpp:399] norm2 -> norm2
I0418 06:57:32.000757 522541 net.cpp:141] Setting up norm2
I0418 06:57:32.000859 522541 net.cpp:148] Top shape: 100 32 32 32 (3276800)
I0418 06:57:32.000985 522541 net.cpp:156] Memory required for data: 517734800
I0418 06:57:32.001083 522541 layer_factory.hpp:77] Creating layer conv3
I0418 06:57:32.001191 522541 net.cpp:91] Creating Layer conv3
I0418 06:57:32.001289 522541 net.cpp:425] conv3 <- norm2
I0418 06:57:32.001389 522541 net.cpp:399] conv3 -> conv3
I0418 06:57:32.005484 522541 net.cpp:141] Setting up conv3
I0418 06:57:32.005589 522541 net.cpp:148] Top shape: 100 64 32 32 (6553600)
I0418 06:57:32.005687 522541 net.cpp:156] Memory required for data: 543949200
I0418 06:57:32.005791 522541 layer_factory.hpp:77] Creating layer relu3
I0418 06:57:32.005890 522541 net.cpp:91] Creating Layer relu3
I0418 06:57:32.005987 522541 net.cpp:425] relu3 <- conv3
I0418 06:57:32.006085 522541 net.cpp:386] relu3 -> conv3 (in-place)
I0418 06:57:32.006384 522541 net.cpp:141] Setting up relu3
I0418 06:57:32.006482 522541 net.cpp:148] Top shape: 100 64 32 32 (6553600)
I0418 06:57:32.006579 522541 net.cpp:156] Memory required for data: 570163600
I0418 06:57:32.006678 522541 layer_factory.hpp:77] Creating layer pool3
I0418 06:57:32.006779 522541 net.cpp:91] Creating Layer pool3
I0418 06:57:32.006878 522541 net.cpp:425] pool3 <- conv3
I0418 06:57:32.006978 522541 net.cpp:399] pool3 -> pool3
I0418 06:57:32.007453 522541 net.cpp:141] Setting up pool3
I0418 06:57:32.007555 522541 net.cpp:148] Top shape: 100 64 16 16 (1638400)
I0418 06:57:32.007655 522541 net.cpp:156] Memory required for data: 576717200
I0418 06:57:32.007755 522541 layer_factory.hpp:77] Creating layer ip1
I0418 06:57:32.007859 522541 net.cpp:91] Creating Layer ip1
I0418 06:57:32.007958 522541 net.cpp:425] ip1 <- pool3
I0418 06:57:32.008059 522541 net.cpp:399] ip1 -> ip1
I0418 06:57:32.015807 522541 net.cpp:141] Setting up ip1
I0418 06:57:32.015911 522541 net.cpp:148] Top shape: 100 10 (1000)
I0418 06:57:32.016010 522541 net.cpp:156] Memory required for data: 576721200
I0418 06:57:32.016113 522541 layer_factory.hpp:77] Creating layer loss
I0418 06:57:32.016221 522541 net.cpp:91] Creating Layer loss
I0418 06:57:32.016320 522541 net.cpp:425] loss <- ip1
I0418 06:57:32.016420 522541 net.cpp:425] loss <- label
I0418 06:57:32.016521 522541 net.cpp:399] loss -> loss
I0418 06:57:32.016633 522541 layer_factory.hpp:77] Creating layer loss
…
I0418 06:57:32.019981 522541 net.cpp:313] The NetState phase (1) differed from the phase (0) specified by a rule in layer cifar
I0418 06:57:32.020313 522541 net.cpp:49] Initializing net from parameters: 
name: "CIFAR_full"
state {
  phase: TEST
}
layer {
  name: "cifar"
  type: "Data"
  top: "data"
  top: "label"
  include {
    phase: TEST
  }
  transform_param {
    mean_file: "/home/abaybektursun/projects/GitHub/IndependentStudy/source/data/mean.binaryproto"
  }
  data_param {
    source: "/home/abaybektursun/projects/GitHub/IndependentStudy/source/data/test_lmdb/"
    batch_size: 100
    backend: LMDB
  }
}
layer {
  name: "conv1"
  type: "Convolution"
  bottom: "data"
  top: "conv1"
  param {
    lr_mult: 1
  }
  param {
    lr_mult: 2
  }
  convolution_param {
    num_output: 32
    pad: 2
    kernel_size: 5
    stride: 1
    weight_filler {
      type: "gaussian"
      std: 0.0001
    }
    bias_filler {
      type: "constant"
    }
  }
}
layer {
  name: "pool1"
  type: "Pooling"
  bottom: "conv1"
  top: "pool1"
  pooling_param {
    pool: MAX
    kernel_size: 3
    stride: 2
  }
}
layer {
  name: "relu1"
  type: "ReLU"
  bottom: "pool1"
  top: "pool1"
}
layer {
  name: "norm1"
  type: "LRN"
  bottom: "pool1"
  top: "norm1"
  lrn_param {
    local_size: 3
    alpha: 5e-05
    beta: 0.75
    norm_region: WITHIN_CHANNEL
  }
}
layer {
  name: "conv2"
  type: "Convolution"
  bottom: "norm1"
  top: "conv2"
  param {
    lr_mult: 1
  }
  param {
    lr_mult: 2
  }
  convolution_param {
    num_output: 32
    pad: 2
    kernel_size: 5
    stride: 1
    weight_filler {
      type: "gaussian"
      std: 0.01
    }
    bias_filler {
      type: "constant"
    }
  }
}
layer {
  name: "relu2"
  type: "ReLU"
  bottom: "conv2"
  top: "conv2"
}
layer {
  name: "pool2"
  type: "Pooling"
  bottom: "conv2"
  top: "pool2"
  pooling_param {
    pool: AVE
    kernel_size: 3
    stride: 2
  }
}
layer {
  name: "norm2"
  type: "LRN"
  bottom: "pool2"
  top: "norm2"
  lrn_param {
    local_size: 3
    alpha: 5e-05
    beta: 0.75
    norm_region: WITHIN_CHANNEL
  }
}
layer {
  name: "conv3"
  type: "Convolution"
  bottom: "norm2"
  top: "conv3"
  convolution_param {
    num_output: 64
    pad: 2
    kernel_size: 5
    stride: 1
    weight_filler {
      type: "gaussian"
      std: 0.01
    }
    bias_filler {
      type: "constant"
    }
  }
}
layer {
  name: "relu3"
  type: "ReLU"
  bottom: "conv3"
  top: "conv3"
}
layer {
  name: "pool3"
  type: "Pooling"
  bottom: "conv3"
  top: "pool3"
  pooling_param {
    pool: AVE
    kernel_size: 3
    stride: 2
  }
}
layer {
  name: "ip1"
  type: "InnerProduct"
  bottom: "pool3"
  top: "ip1"
  param {
    lr_mult: 1
    decay_mult: 250
  }
  param {
    lr_mult: 2
    decay_mult: 0
  }
  inner_product_param {
    num_output: 10
    weight_filler {
      type: "gaussian"
      std: 0.01
    }
    bias_filler {
      type: "constant"
    }
  }
}
layer {
  name: "accuracy"
  type: "Accuracy"
  bottom: "ip1"
  bottom: "label"
  top: "accuracy"
  include {
    phase: TEST
  }
}
layer {
  name: "loss"
  type: "SoftmaxWithLoss"
  bottom: "ip1"
  bottom: "label"
  top: "loss"
}
I0418 06:57:32.041343 522541 layer_factory.hpp:77] Creating layer cifar
I0418 06:57:32.041571 522541 net.cpp:91] Creating Layer cifar
I0418 06:57:32.041674 522541 net.cpp:399] cifar -> data
I0418 06:57:32.041774 522541 net.cpp:399] cifar -> label
I0418 06:57:32.041896 522541 data_transformer.cpp:25] Loading mean file from: /home/abaybektursun/projects/GitHub/IndependentStudy/source/data/mean.binaryproto
I0418 06:57:32.042572 522549 db_lmdb.cpp:38] Opened lmdb /home/abaybektursun/projects/GitHub/IndependentStudy/source/data/test_lmdb/
I0418 06:57:32.042954 522541 data_layer.cpp:41] output data size: 100,3,128,128
I0418 06:57:32.099581 522541 net.cpp:141] Setting up cifar
I0418 06:57:32.099714 522541 net.cpp:148] Top shape: 100 3 128 128 (4915200)
I0418 06:57:32.099820 522541 net.cpp:148] Top shape: 100 (100)
I0418 06:57:32.099937 522541 net.cpp:156] Memory required for data: 19661200
I0418 06:57:32.100064 522541 layer_factory.hpp:77] Creating layer label_cifar_1_split
I0418 06:57:32.100303 522541 net.cpp:91] Creating Layer label_cifar_1_split
I0418 06:57:32.100404 522541 net.cpp:425] label_cifar_1_split <- label
I0418 06:57:32.100507 522541 net.cpp:399] label_cifar_1_split -> label_cifar_1_split_0
I0418 06:57:32.100783 522541 net.cpp:399] label_cifar_1_split -> label_cifar_1_split_1
I0418 06:57:32.103799 522541 net.cpp:141] Setting up label_cifar_1_split
I0418 06:57:32.103914 522541 net.cpp:148] Top shape: 100 (100)
I0418 06:57:32.104014 522541 net.cpp:148] Top shape: 100 (100)
I0418 06:57:32.104113 522541 net.cpp:156] Memory required for data: 19662000
I0418 06:57:32.104221 522541 layer_factory.hpp:77] Creating layer conv1
I0418 06:57:32.104333 522541 net.cpp:91] Creating Layer conv1
I0418 06:57:32.104434 522541 net.cpp:425] conv1 <- data
I0418 06:57:32.104537 522541 net.cpp:399] conv1 -> conv1
I0418 06:57:32.105921 522541 net.cpp:141] Setting up conv1
I0418 06:57:32.106025 522541 net.cpp:148] Top shape: 100 32 128 128 (52428800)
I0418 06:57:32.106127 522541 net.cpp:156] Memory required for data: 229377200
I0418 06:57:32.106240 522541 layer_factory.hpp:77] Creating layer pool1
I0418 06:57:32.106344 522541 net.cpp:91] Creating Layer pool1
I0418 06:57:32.106443 522541 net.cpp:425] pool1 <- conv1
I0418 06:57:32.106546 522541 net.cpp:399] pool1 -> pool1
I0418 06:57:32.106683 522541 net.cpp:141] Setting up pool1
I0418 06:57:32.106783 522541 net.cpp:148] Top shape: 100 32 64 64 (13107200)
I0418 06:57:32.106884 522541 net.cpp:156] Memory required for data: 281806000
I0418 06:57:32.106984 522541 layer_factory.hpp:77] Creating layer relu1
I0418 06:57:32.107089 522541 net.cpp:91] Creating Layer relu1
I0418 06:57:32.107189 522541 net.cpp:425] relu1 <- pool1
I0418 06:57:32.107290 522541 net.cpp:386] relu1 -> pool1 (in-place)
I0418 06:57:32.107745 522541 net.cpp:141] Setting up relu1
I0418 06:57:32.107847 522541 net.cpp:148] Top shape: 100 32 64 64 (13107200)
I0418 06:57:32.107949 522541 net.cpp:156] Memory required for data: 334234800
I0418 06:57:32.108048 522541 layer_factory.hpp:77] Creating layer norm1
I0418 06:57:32.108152 522541 net.cpp:91] Creating Layer norm1
I0418 06:57:32.108255 522541 net.cpp:425] norm1 <- pool1
I0418 06:57:32.108358 522541 net.cpp:399] norm1 -> norm1
I0418 06:57:32.111301 522541 net.cpp:141] Setting up norm1
I0418 06:57:32.111405 522541 net.cpp:148] Top shape: 100 32 64 64 (13107200)
I0418 06:57:32.111505 522541 net.cpp:156] Memory required for data: 386663600
I0418 06:57:32.111608 522541 layer_factory.hpp:77] Creating layer conv2
I0418 06:57:32.111711 522541 net.cpp:91] Creating Layer conv2
I0418 06:57:32.111812 522541 net.cpp:425] conv2 <- norm1
I0418 06:57:32.111914 522541 net.cpp:399] conv2 -> conv2
I0418 06:57:32.114581 522541 net.cpp:141] Setting up conv2
I0418 06:57:32.114687 522541 net.cpp:148] Top shape: 100 32 64 64 (13107200)
I0418 06:57:32.114789 522541 net.cpp:156] Memory required for data: 439092400
I0418 06:57:32.114897 522541 layer_factory.hpp:77] Creating layer relu2
I0418 06:57:32.115000 522541 net.cpp:91] Creating Layer relu2
I0418 06:57:32.115101 522541 net.cpp:425] relu2 <- conv2
I0418 06:57:32.115207 522541 net.cpp:386] relu2 -> conv2 (in-place)
I0418 06:57:32.115703 522541 net.cpp:141] Setting up relu2
I0418 06:57:32.115811 522541 net.cpp:148] Top shape: 100 32 64 64 (13107200)
I0418 06:57:32.115916 522541 net.cpp:156] Memory required for data: 491521200
I0418 06:57:32.116017 522541 layer_factory.hpp:77] Creating layer pool2
I0418 06:57:32.116120 522541 net.cpp:91] Creating Layer pool2
I0418 06:57:32.116224 522541 net.cpp:425] pool2 <- conv2
I0418 06:57:32.116328 522541 net.cpp:399] pool2 -> pool2
I0418 06:57:32.116824 522541 net.cpp:141] Setting up pool2
I0418 06:57:32.116927 522541 net.cpp:148] Top shape: 100 32 32 32 (3276800)
I0418 06:57:32.117025 522541 net.cpp:156] Memory required for data: 504628400
I0418 06:57:32.117123 522541 layer_factory.hpp:77] Creating layer norm2
I0418 06:57:32.117229 522541 net.cpp:91] Creating Layer norm2
I0418 06:57:32.117326 522541 net.cpp:425] norm2 <- pool2
I0418 06:57:32.117429 522541 net.cpp:399] norm2 -> norm2
I0418 06:57:32.118376 522541 net.cpp:141] Setting up norm2
I0418 06:57:32.118476 522541 net.cpp:148] Top shape: 100 32 32 32 (3276800)
I0418 06:57:32.118574 522541 net.cpp:156] Memory required for data: 517735600
I0418 06:57:32.118703 522541 layer_factory.hpp:77] Creating layer conv3
I0418 06:57:32.118809 522541 net.cpp:91] Creating Layer conv3
I0418 06:57:32.118908 522541 net.cpp:425] conv3 <- norm2
I0418 06:57:32.119009 522541 net.cpp:399] conv3 -> conv3
I0418 06:57:32.122967 522541 net.cpp:141] Setting up conv3
I0418 06:57:32.123071 522541 net.cpp:148] Top shape: 100 64 32 32 (6553600)
I0418 06:57:32.123170 522541 net.cpp:156] Memory required for data: 543950000
I0418 06:57:32.123280 522541 layer_factory.hpp:77] Creating layer relu3
I0418 06:57:32.123383 522541 net.cpp:91] Creating Layer relu3
I0418 06:57:32.123481 522541 net.cpp:425] relu3 <- conv3
I0418 06:57:32.123580 522541 net.cpp:386] relu3 -> conv3 (in-place)
I0418 06:57:32.123903 522541 net.cpp:141] Setting up relu3
I0418 06:57:32.124006 522541 net.cpp:148] Top shape: 100 64 32 32 (6553600)
I0418 06:57:32.124109 522541 net.cpp:156] Memory required for data: 570164400
I0418 06:57:32.124213 522541 layer_factory.hpp:77] Creating layer pool3
I0418 06:57:32.124315 522541 net.cpp:91] Creating Layer pool3
I0418 06:57:32.124414 522541 net.cpp:425] pool3 <- conv3
I0418 06:57:32.124519 522541 net.cpp:399] pool3 -> pool3
I0418 06:57:32.125012 522541 net.cpp:141] Setting up pool3
I0418 06:57:32.125115 522541 net.cpp:148] Top shape: 100 64 16 16 (1638400)
I0418 06:57:32.125218 522541 net.cpp:156] Memory required for data: 576718000
I0418 06:57:32.125319 522541 layer_factory.hpp:77] Creating layer ip1
I0418 06:57:32.125422 522541 net.cpp:91] Creating Layer ip1
I0418 06:57:32.125524 522541 net.cpp:425] ip1 <- pool3
I0418 06:57:32.125625 522541 net.cpp:399] ip1 -> ip1
I0418 06:57:32.133767 522541 net.cpp:141] Setting up ip1
I0418 06:57:32.133875 522541 net.cpp:148] Top shape: 100 10 (1000)
I0418 06:57:32.133975 522541 net.cpp:156] Memory required for data: 576722000
I0418 06:57:32.134079 522541 layer_factory.hpp:77] Creating layer ip1_ip1_0_split
I0418 06:57:32.134276 522541 net.cpp:91] Creating Layer ip1_ip1_0_split
I0418 06:57:32.134377 522541 net.cpp:425] ip1_ip1_0_split <- ip1
I0418 06:57:32.134480 522541 net.cpp:399] ip1_ip1_0_split -> ip1_ip1_0_split_0
I0418 06:57:32.134584 522541 net.cpp:399] ip1_ip1_0_split -> ip1_ip1_0_split_1
I0418 06:57:32.134727 522541 net.cpp:141] Setting up ip1_ip1_0_split
I0418 06:57:32.134827 522541 net.cpp:148] Top shape: 100 10 (1000)
I0418 06:57:32.134929 522541 net.cpp:148] Top shape: 100 10 (1000)
I0418 06:57:32.135028 522541 net.cpp:156] Memory required for data: 576730000
I0418 06:57:32.135129 522541 layer_factory.hpp:77] Creating layer accuracy
I0418 06:57:32.135241 522541 net.cpp:91] Creating Layer accuracy
I0418 06:57:32.135342 522541 net.cpp:425] accuracy <- ip1_ip1_0_split_0
I0418 06:57:32.135443 522541 net.cpp:425] accuracy <- label_cifar_1_split_0
I0418 06:57:32.135545 522541 net.cpp:399] accuracy -> accuracy
…
