…
I0417 14:51:00.831948 461272 net.cpp:313] The NetState phase (0) differed from the phase (1) specified by a rule in layer accuracy
I0417 14:51:00.832340 461272 net.cpp:49] Initializing net from parameters: 
name: "CIFAR_full"
state {
  phase: TRAIN
}
layer {
  name: "cifar"
  type: "Data"
  top: "data"
  top: "label"
  include {
    phase: TRAIN
  }
  transform_param {
    mean_file: "/home/abaybektursun/projects/GitHub/IndependentStudy/source/data/mean.binaryproto"
  }
  data_param {
    source: "/home/abaybektursun/projects/GitHub/IndependentStudy/source/data/train_lmdb/"
    batch_size: 100
    backend: LMDB
  }
}
layer {
  name: "conv1"
  type: "Convolution"
  bottom: "data"
  top: "conv1"
  param {
    lr_mult: 1
  }
  param {
    lr_mult: 2
  }
  convolution_param {
    num_output: 32
    pad: 2
    kernel_size: 5
    stride: 1
    weight_filler {
      type: "gaussian"
      std: 0.0001
    }
    bias_filler {
      type: "constant"
    }
  }
}
layer {
  name: "pool1"
  type: "Pooling"
  bottom: "conv1"
  top: "pool1"
  pooling_param {
    pool: MAX
    kernel_size: 3
    stride: 2
  }
}
layer {
  name: "relu1"
  type: "ReLU"
  bottom: "pool1"
  top: "pool1"
}
layer {
  name: "norm1"
  type: "LRN"
  bottom: "pool1"
  top: "norm1"
  lrn_param {
    local_size: 3
    alpha: 5e-05
    beta: 0.75
    norm_region: WITHIN_CHANNEL
  }
}
layer {
  name: "conv2"
  type: "Convolution"
  bottom: "norm1"
  top: "conv2"
  param {
    lr_mult: 1
  }
  param {
    lr_mult: 2
  }
  convolution_param {
    num_output: 32
    pad: 2
    kernel_size: 5
    stride: 1
    weight_filler {
      type: "gaussian"
      std: 0.01
    }
    bias_filler {
      type: "constant"
    }
  }
}
layer {
  name: "relu2"
  type: "ReLU"
  bottom: "conv2"
  top: "conv2"
}
layer {
  name: "pool2"
  type: "Pooling"
  bottom: "conv2"
  top: "pool2"
  pooling_param {
    pool: AVE
    kernel_size: 3
    stride: 2
  }
}
layer {
  name: "norm2"
  type: "LRN"
  bottom: "pool2"
  top: "norm2"
  lrn_param {
    local_size: 3
    alpha: 5e-05
    beta: 0.75
    norm_region: WITHIN_CHANNEL
  }
}
layer {
  name: "conv3"
  type: "Convolution"
  bottom: "norm2"
  top: "conv3"
  convolution_param {
    num_output: 64
    pad: 2
    kernel_size: 5
    stride: 1
    weight_filler {
      type: "gaussian"
      std: 0.01
    }
    bias_filler {
      type: "constant"
    }
  }
}
layer {
  name: "relu3"
  type: "ReLU"
  bottom: "conv3"
  top: "conv3"
}
layer {
  name: "pool3"
  type: "Pooling"
  bottom: "conv3"
  top: "pool3"
  pooling_param {
    pool: AVE
    kernel_size: 3
    stride: 2
  }
}
layer {
  name: "ip1"
  type: "InnerProduct"
  bottom: "pool3"
  top: "ip1"
  param {
    lr_mult: 1
    decay_mult: 250
  }
  param {
    lr_mult: 2
    decay_mult: 0
  }
  inner_product_param {
    num_output: 10
    weight_filler {
      type: "gaussian"
      std: 0.01
    }
    bias_filler {
      type: "constant"
    }
  }
}
layer {
  name: "loss"
  type: "SoftmaxWithLoss"
  bottom: "ip1"
  bottom: "label"
  top: "loss"
}
I0417 14:51:00.866900 461272 layer_factory.hpp:77] Creating layer cifar
I0417 14:51:00.867523 461272 net.cpp:91] Creating Layer cifar
I0417 14:51:00.867717 461272 net.cpp:399] cifar -> data
I0417 14:51:00.867960 461272 net.cpp:399] cifar -> label
I0417 14:51:00.868160 461272 data_transformer.cpp:25] Loading mean file from: /home/abaybektursun/projects/GitHub/IndependentStudy/source/data/mean.binaryproto
I0417 14:51:00.868471 461279 db_lmdb.cpp:38] Opened lmdb /home/abaybektursun/projects/GitHub/IndependentStudy/source/data/train_lmdb/
I0417 14:51:00.882061 461272 data_layer.cpp:41] output data size: 100,3,128,128
I0417 14:51:00.938446 461272 net.cpp:141] Setting up cifar
I0417 14:51:00.938660 461272 net.cpp:148] Top shape: 100 3 128 128 (4915200)
I0417 14:51:00.938881 461272 net.cpp:148] Top shape: 100 (100)
I0417 14:51:00.939095 461272 net.cpp:156] Memory required for data: 19661200
I0417 14:51:00.939283 461272 layer_factory.hpp:77] Creating layer conv1
I0417 14:51:00.939509 461272 net.cpp:91] Creating Layer conv1
I0417 14:51:00.939712 461272 net.cpp:425] conv1 <- data
I0417 14:51:00.939932 461272 net.cpp:399] conv1 -> conv1
I0417 14:51:01.186213 461272 net.cpp:141] Setting up conv1
I0417 14:51:01.186415 461272 net.cpp:148] Top shape: 100 32 128 128 (52428800)
I0417 14:51:01.186589 461272 net.cpp:156] Memory required for data: 229376400
I0417 14:51:01.186787 461272 layer_factory.hpp:77] Creating layer pool1
I0417 14:51:01.186971 461272 net.cpp:91] Creating Layer pool1
I0417 14:51:01.187146 461272 net.cpp:425] pool1 <- conv1
I0417 14:51:01.187325 461272 net.cpp:399] pool1 -> pool1
I0417 14:51:01.187547 461272 net.cpp:141] Setting up pool1
I0417 14:51:01.187722 461272 net.cpp:148] Top shape: 100 32 64 64 (13107200)
I0417 14:51:01.187896 461272 net.cpp:156] Memory required for data: 281805200
I0417 14:51:01.188069 461272 layer_factory.hpp:77] Creating layer relu1
I0417 14:51:01.188249 461272 net.cpp:91] Creating Layer relu1
I0417 14:51:01.188422 461272 net.cpp:425] relu1 <- pool1
I0417 14:51:01.188596 461272 net.cpp:386] relu1 -> pool1 (in-place)
I0417 14:51:01.188949 461272 net.cpp:141] Setting up relu1
I0417 14:51:01.189124 461272 net.cpp:148] Top shape: 100 32 64 64 (13107200)
I0417 14:51:01.189301 461272 net.cpp:156] Memory required for data: 334234000
I0417 14:51:01.189474 461272 layer_factory.hpp:77] Creating layer norm1
I0417 14:51:01.189657 461272 net.cpp:91] Creating Layer norm1
I0417 14:51:01.189831 461272 net.cpp:425] norm1 <- pool1
I0417 14:51:01.190004 461272 net.cpp:399] norm1 -> norm1
I0417 14:51:01.191052 461272 net.cpp:141] Setting up norm1
I0417 14:51:01.191234 461272 net.cpp:148] Top shape: 100 32 64 64 (13107200)
I0417 14:51:01.191408 461272 net.cpp:156] Memory required for data: 386662800
I0417 14:51:01.191582 461272 layer_factory.hpp:77] Creating layer conv2
I0417 14:51:01.191764 461272 net.cpp:91] Creating Layer conv2
I0417 14:51:01.191937 461272 net.cpp:425] conv2 <- norm1
I0417 14:51:01.192112 461272 net.cpp:399] conv2 -> conv2
I0417 14:51:01.194743 461272 net.cpp:141] Setting up conv2
I0417 14:51:01.194922 461272 net.cpp:148] Top shape: 100 32 64 64 (13107200)
I0417 14:51:01.195098 461272 net.cpp:156] Memory required for data: 439091600
I0417 14:51:01.195289 461272 layer_factory.hpp:77] Creating layer relu2
I0417 14:51:01.195464 461272 net.cpp:91] Creating Layer relu2
I0417 14:51:01.195637 461272 net.cpp:425] relu2 <- conv2
I0417 14:51:01.195812 461272 net.cpp:386] relu2 -> conv2 (in-place)
I0417 14:51:01.196151 461272 net.cpp:141] Setting up relu2
I0417 14:51:01.196328 461272 net.cpp:148] Top shape: 100 32 64 64 (13107200)
I0417 14:51:01.196502 461272 net.cpp:156] Memory required for data: 491520400
I0417 14:51:01.196676 461272 layer_factory.hpp:77] Creating layer pool2
I0417 14:51:01.196851 461272 net.cpp:91] Creating Layer pool2
I0417 14:51:01.197024 461272 net.cpp:425] pool2 <- conv2
I0417 14:51:01.197201 461272 net.cpp:399] pool2 -> pool2
I0417 14:51:01.197726 461272 net.cpp:141] Setting up pool2
I0417 14:51:01.197901 461272 net.cpp:148] Top shape: 100 32 32 32 (3276800)
I0417 14:51:01.198071 461272 net.cpp:156] Memory required for data: 504627600
I0417 14:51:01.198246 461272 layer_factory.hpp:77] Creating layer norm2
I0417 14:51:01.198422 461272 net.cpp:91] Creating Layer norm2
I0417 14:51:01.198592 461272 net.cpp:425] norm2 <- pool2
I0417 14:51:01.198765 461272 net.cpp:399] norm2 -> norm2
I0417 14:51:01.199542 461272 net.cpp:141] Setting up norm2
I0417 14:51:01.199717 461272 net.cpp:148] Top shape: 100 32 32 32 (3276800)
I0417 14:51:01.199916 461272 net.cpp:156] Memory required for data: 517734800
I0417 14:51:01.200088 461272 layer_factory.hpp:77] Creating layer conv3
I0417 14:51:01.200268 461272 net.cpp:91] Creating Layer conv3
I0417 14:51:01.200438 461272 net.cpp:425] conv3 <- norm2
I0417 14:51:01.200610 461272 net.cpp:399] conv3 -> conv3
I0417 14:51:01.204836 461272 net.cpp:141] Setting up conv3
I0417 14:51:01.205018 461272 net.cpp:148] Top shape: 100 64 32 32 (6553600)
I0417 14:51:01.205195 461272 net.cpp:156] Memory required for data: 543949200
I0417 14:51:01.205382 461272 layer_factory.hpp:77] Creating layer relu3
I0417 14:51:01.205556 461272 net.cpp:91] Creating Layer relu3
I0417 14:51:01.205730 461272 net.cpp:425] relu3 <- conv3
I0417 14:51:01.205904 461272 net.cpp:386] relu3 -> conv3 (in-place)
I0417 14:51:01.206264 461272 net.cpp:141] Setting up relu3
I0417 14:51:01.206440 461272 net.cpp:148] Top shape: 100 64 32 32 (6553600)
I0417 14:51:01.206614 461272 net.cpp:156] Memory required for data: 570163600
I0417 14:51:01.206799 461272 layer_factory.hpp:77] Creating layer pool3
I0417 14:51:01.206974 461272 net.cpp:91] Creating Layer pool3
I0417 14:51:01.207149 461272 net.cpp:425] pool3 <- conv3
I0417 14:51:01.207326 461272 net.cpp:399] pool3 -> pool3
I0417 14:51:01.207885 461272 net.cpp:141] Setting up pool3
I0417 14:51:01.208068 461272 net.cpp:148] Top shape: 100 64 16 16 (1638400)
I0417 14:51:01.208245 461272 net.cpp:156] Memory required for data: 576717200
I0417 14:51:01.208422 461272 layer_factory.hpp:77] Creating layer ip1
I0417 14:51:01.208606 461272 net.cpp:91] Creating Layer ip1
I0417 14:51:01.208780 461272 net.cpp:425] ip1 <- pool3
I0417 14:51:01.208953 461272 net.cpp:399] ip1 -> ip1
I0417 14:51:01.216987 461272 net.cpp:141] Setting up ip1
I0417 14:51:01.217164 461272 net.cpp:148] Top shape: 100 10 (1000)
I0417 14:51:01.217339 461272 net.cpp:156] Memory required for data: 576721200
I0417 14:51:01.217514 461272 layer_factory.hpp:77] Creating layer loss
I0417 14:51:01.217690 461272 net.cpp:91] Creating Layer loss
I0417 14:51:01.217861 461272 net.cpp:425] loss <- ip1
I0417 14:51:01.218034 461272 net.cpp:425] loss <- label
I0417 14:51:01.218209 461272 net.cpp:399] loss -> loss
I0417 14:51:01.218392 461272 layer_factory.hpp:77] Creating layer loss
…
I0417 14:51:01.223323 461272 net.cpp:313] The NetState phase (1) differed from the phase (0) specified by a rule in layer cifar
I0417 14:51:01.223721 461272 net.cpp:49] Initializing net from parameters: 
name: "CIFAR_full"
state {
  phase: TEST
}
layer {
  name: "cifar"
  type: "Data"
  top: "data"
  top: "label"
  include {
    phase: TEST
  }
  transform_param {
    mean_file: "/home/abaybektursun/projects/GitHub/IndependentStudy/source/data/mean.binaryproto"
  }
  data_param {
    source: "/home/abaybektursun/projects/GitHub/IndependentStudy/source/data/test_lmdb/"
    batch_size: 100
    backend: LMDB
  }
}
layer {
  name: "conv1"
  type: "Convolution"
  bottom: "data"
  top: "conv1"
  param {
    lr_mult: 1
  }
  param {
    lr_mult: 2
  }
  convolution_param {
    num_output: 32
    pad: 2
    kernel_size: 5
    stride: 1
    weight_filler {
      type: "gaussian"
      std: 0.0001
    }
    bias_filler {
      type: "constant"
    }
  }
}
layer {
  name: "pool1"
  type: "Pooling"
  bottom: "conv1"
  top: "pool1"
  pooling_param {
    pool: MAX
    kernel_size: 3
    stride: 2
  }
}
layer {
  name: "relu1"
  type: "ReLU"
  bottom: "pool1"
  top: "pool1"
}
layer {
  name: "norm1"
  type: "LRN"
  bottom: "pool1"
  top: "norm1"
  lrn_param {
    local_size: 3
    alpha: 5e-05
    beta: 0.75
    norm_region: WITHIN_CHANNEL
  }
}
layer {
  name: "conv2"
  type: "Convolution"
  bottom: "norm1"
  top: "conv2"
  param {
    lr_mult: 1
  }
  param {
    lr_mult: 2
  }
  convolution_param {
    num_output: 32
    pad: 2
    kernel_size: 5
    stride: 1
    weight_filler {
      type: "gaussian"
      std: 0.01
    }
    bias_filler {
      type: "constant"
    }
  }
}
layer {
  name: "relu2"
  type: "ReLU"
  bottom: "conv2"
  top: "conv2"
}
layer {
  name: "pool2"
  type: "Pooling"
  bottom: "conv2"
  top: "pool2"
  pooling_param {
    pool: AVE
    kernel_size: 3
    stride: 2
  }
}
layer {
  name: "norm2"
  type: "LRN"
  bottom: "pool2"
  top: "norm2"
  lrn_param {
    local_size: 3
    alpha: 5e-05
    beta: 0.75
    norm_region: WITHIN_CHANNEL
  }
}
layer {
  name: "conv3"
  type: "Convolution"
  bottom: "norm2"
  top: "conv3"
  convolution_param {
    num_output: 64
    pad: 2
    kernel_size: 5
    stride: 1
    weight_filler {
      type: "gaussian"
      std: 0.01
    }
    bias_filler {
      type: "constant"
    }
  }
}
layer {
  name: "relu3"
  type: "ReLU"
  bottom: "conv3"
  top: "conv3"
}
layer {
  name: "pool3"
  type: "Pooling"
  bottom: "conv3"
  top: "pool3"
  pooling_param {
    pool: AVE
    kernel_size: 3
    stride: 2
  }
}
layer {
  name: "ip1"
  type: "InnerProduct"
  bottom: "pool3"
  top: "ip1"
  param {
    lr_mult: 1
    decay_mult: 250
  }
  param {
    lr_mult: 2
    decay_mult: 0
  }
  inner_product_param {
    num_output: 10
    weight_filler {
      type: "gaussian"
      std: 0.01
    }
    bias_filler {
      type: "constant"
    }
  }
}
layer {
  name: "accuracy"
  type: "Accuracy"
  bottom: "ip1"
  bottom: "label"
  top: "accuracy"
  include {
    phase: TEST
  }
}
layer {
  name: "loss"
  type: "SoftmaxWithLoss"
  bottom: "ip1"
  bottom: "label"
  top: "loss"
}
I0417 14:51:01.261726 461272 layer_factory.hpp:77] Creating layer cifar
I0417 14:51:01.262012 461272 net.cpp:91] Creating Layer cifar
I0417 14:51:01.262192 461272 net.cpp:399] cifar -> data
I0417 14:51:01.262403 461272 net.cpp:399] cifar -> label
I0417 14:51:01.262624 461272 data_transformer.cpp:25] Loading mean file from: /home/abaybektursun/projects/GitHub/IndependentStudy/source/data/mean.binaryproto
I0417 14:51:01.263015 461281 db_lmdb.cpp:38] Opened lmdb /home/abaybektursun/projects/GitHub/IndependentStudy/source/data/test_lmdb/
I0417 14:51:01.263483 461272 data_layer.cpp:41] output data size: 100,3,128,128
I0417 14:51:01.321264 461272 net.cpp:141] Setting up cifar
I0417 14:51:01.321465 461272 net.cpp:148] Top shape: 100 3 128 128 (4915200)
I0417 14:51:01.321687 461272 net.cpp:148] Top shape: 100 (100)
I0417 14:51:01.321900 461272 net.cpp:156] Memory required for data: 19661200
I0417 14:51:01.322078 461272 layer_factory.hpp:77] Creating layer label_cifar_1_split
I0417 14:51:01.322393 461272 net.cpp:91] Creating Layer label_cifar_1_split
I0417 14:51:01.322595 461272 net.cpp:425] label_cifar_1_split <- label
I0417 14:51:01.322804 461272 net.cpp:399] label_cifar_1_split -> label_cifar_1_split_0
I0417 14:51:01.323158 461272 net.cpp:399] label_cifar_1_split -> label_cifar_1_split_1
I0417 14:51:01.325451 461272 net.cpp:141] Setting up label_cifar_1_split
I0417 14:51:01.325641 461272 net.cpp:148] Top shape: 100 (100)
I0417 14:51:01.325819 461272 net.cpp:148] Top shape: 100 (100)
I0417 14:51:01.325994 461272 net.cpp:156] Memory required for data: 19662000
I0417 14:51:01.326169 461272 layer_factory.hpp:77] Creating layer conv1
I0417 14:51:01.326364 461272 net.cpp:91] Creating Layer conv1
I0417 14:51:01.326539 461272 net.cpp:425] conv1 <- data
I0417 14:51:01.326717 461272 net.cpp:399] conv1 -> conv1
I0417 14:51:01.328173 461272 net.cpp:141] Setting up conv1
I0417 14:51:01.328366 461272 net.cpp:148] Top shape: 100 32 128 128 (52428800)
I0417 14:51:01.328559 461272 net.cpp:156] Memory required for data: 229377200
I0417 14:51:01.328742 461272 layer_factory.hpp:77] Creating layer pool1
I0417 14:51:01.328922 461272 net.cpp:91] Creating Layer pool1
I0417 14:51:01.329097 461272 net.cpp:425] pool1 <- conv1
I0417 14:51:01.329278 461272 net.cpp:399] pool1 -> pool1
I0417 14:51:01.329491 461272 net.cpp:141] Setting up pool1
I0417 14:51:01.329668 461272 net.cpp:148] Top shape: 100 32 64 64 (13107200)
I0417 14:51:01.329844 461272 net.cpp:156] Memory required for data: 281806000
I0417 14:51:01.330019 461272 layer_factory.hpp:77] Creating layer relu1
I0417 14:51:01.330200 461272 net.cpp:91] Creating Layer relu1
I0417 14:51:01.330374 461272 net.cpp:425] relu1 <- pool1
I0417 14:51:01.330549 461272 net.cpp:386] relu1 -> pool1 (in-place)
I0417 14:51:01.331084 461272 net.cpp:141] Setting up relu1
I0417 14:51:01.331266 461272 net.cpp:148] Top shape: 100 32 64 64 (13107200)
I0417 14:51:01.331444 461272 net.cpp:156] Memory required for data: 334234800
I0417 14:51:01.331617 461272 layer_factory.hpp:77] Creating layer norm1
I0417 14:51:01.331794 461272 net.cpp:91] Creating Layer norm1
I0417 14:51:01.331966 461272 net.cpp:425] norm1 <- pool1
I0417 14:51:01.332139 461272 net.cpp:399] norm1 -> norm1
I0417 14:51:01.333050 461272 net.cpp:141] Setting up norm1
I0417 14:51:01.333232 461272 net.cpp:148] Top shape: 100 32 64 64 (13107200)
I0417 14:51:01.333406 461272 net.cpp:156] Memory required for data: 386663600
I0417 14:51:01.333580 461272 layer_factory.hpp:77] Creating layer conv2
I0417 14:51:01.333758 461272 net.cpp:91] Creating Layer conv2
I0417 14:51:01.333932 461272 net.cpp:425] conv2 <- norm1
I0417 14:51:01.334106 461272 net.cpp:399] conv2 -> conv2
I0417 14:51:01.336881 461272 net.cpp:141] Setting up conv2
I0417 14:51:01.337061 461272 net.cpp:148] Top shape: 100 32 64 64 (13107200)
I0417 14:51:01.337239 461272 net.cpp:156] Memory required for data: 439092400
I0417 14:51:01.337420 461272 layer_factory.hpp:77] Creating layer relu2
I0417 14:51:01.337596 461272 net.cpp:91] Creating Layer relu2
I0417 14:51:01.337771 461272 net.cpp:425] relu2 <- conv2
I0417 14:51:01.337955 461272 net.cpp:386] relu2 -> conv2 (in-place)
I0417 14:51:01.338507 461272 net.cpp:141] Setting up relu2
I0417 14:51:01.338686 461272 net.cpp:148] Top shape: 100 32 64 64 (13107200)
I0417 14:51:01.338861 461272 net.cpp:156] Memory required for data: 491521200
I0417 14:51:01.339036 461272 layer_factory.hpp:77] Creating layer pool2
I0417 14:51:01.339221 461272 net.cpp:91] Creating Layer pool2
I0417 14:51:01.339395 461272 net.cpp:425] pool2 <- conv2
I0417 14:51:01.339571 461272 net.cpp:399] pool2 -> pool2
I0417 14:51:01.340124 461272 net.cpp:141] Setting up pool2
I0417 14:51:01.340307 461272 net.cpp:148] Top shape: 100 32 32 32 (3276800)
I0417 14:51:01.340483 461272 net.cpp:156] Memory required for data: 504628400
I0417 14:51:01.340659 461272 layer_factory.hpp:77] Creating layer norm2
I0417 14:51:01.340837 461272 net.cpp:91] Creating Layer norm2
I0417 14:51:01.341011 461272 net.cpp:425] norm2 <- pool2
I0417 14:51:01.341190 461272 net.cpp:399] norm2 -> norm2
I0417 14:51:01.342173 461272 net.cpp:141] Setting up norm2
I0417 14:51:01.342355 461272 net.cpp:148] Top shape: 100 32 32 32 (3276800)
I0417 14:51:01.342532 461272 net.cpp:156] Memory required for data: 517735600
I0417 14:51:01.342746 461272 layer_factory.hpp:77] Creating layer conv3
I0417 14:51:01.342926 461272 net.cpp:91] Creating Layer conv3
I0417 14:51:01.343099 461272 net.cpp:425] conv3 <- norm2
I0417 14:51:01.343279 461272 net.cpp:399] conv3 -> conv3
I0417 14:51:01.347335 461272 net.cpp:141] Setting up conv3
I0417 14:51:01.347517 461272 net.cpp:148] Top shape: 100 64 32 32 (6553600)
I0417 14:51:01.347697 461272 net.cpp:156] Memory required for data: 543950000
I0417 14:51:01.347875 461272 layer_factory.hpp:77] Creating layer relu3
I0417 14:51:01.348449 461272 net.cpp:91] Creating Layer relu3
I0417 14:51:01.348644 461272 net.cpp:425] relu3 <- conv3
I0417 14:51:01.351614 461272 net.cpp:386] relu3 -> conv3 (in-place)
I0417 14:51:01.355041 461272 net.cpp:141] Setting up relu3
I0417 14:51:01.355232 461272 net.cpp:148] Top shape: 100 64 32 32 (6553600)
I0417 14:51:01.355407 461272 net.cpp:156] Memory required for data: 570164400
I0417 14:51:01.355584 461272 layer_factory.hpp:77] Creating layer pool3
I0417 14:51:01.355765 461272 net.cpp:91] Creating Layer pool3
I0417 14:51:01.355942 461272 net.cpp:425] pool3 <- conv3
I0417 14:51:01.356122 461272 net.cpp:399] pool3 -> pool3
I0417 14:51:01.356704 461272 net.cpp:141] Setting up pool3
I0417 14:51:01.356883 461272 net.cpp:148] Top shape: 100 64 16 16 (1638400)
I0417 14:51:01.357059 461272 net.cpp:156] Memory required for data: 576718000
I0417 14:51:01.357239 461272 layer_factory.hpp:77] Creating layer ip1
I0417 14:51:01.357419 461272 net.cpp:91] Creating Layer ip1
I0417 14:51:01.357594 461272 net.cpp:425] ip1 <- pool3
I0417 14:51:01.357770 461272 net.cpp:399] ip1 -> ip1
I0417 14:51:01.366616 461272 net.cpp:141] Setting up ip1
I0417 14:51:01.366799 461272 net.cpp:148] Top shape: 100 10 (1000)
I0417 14:51:01.366976 461272 net.cpp:156] Memory required for data: 576722000
I0417 14:51:01.367158 461272 layer_factory.hpp:77] Creating layer ip1_ip1_0_split
I0417 14:51:01.367429 461272 net.cpp:91] Creating Layer ip1_ip1_0_split
I0417 14:51:01.367605 461272 net.cpp:425] ip1_ip1_0_split <- ip1
I0417 14:51:01.367784 461272 net.cpp:399] ip1_ip1_0_split -> ip1_ip1_0_split_0
I0417 14:51:01.367964 461272 net.cpp:399] ip1_ip1_0_split -> ip1_ip1_0_split_1
I0417 14:51:01.368178 461272 net.cpp:141] Setting up ip1_ip1_0_split
I0417 14:51:01.368360 461272 net.cpp:148] Top shape: 100 10 (1000)
I0417 14:51:01.368533 461272 net.cpp:148] Top shape: 100 10 (1000)
I0417 14:51:01.368705 461272 net.cpp:156] Memory required for data: 576730000
I0417 14:51:01.368878 461272 layer_factory.hpp:77] Creating layer accuracy
I0417 14:51:01.369060 461272 net.cpp:91] Creating Layer accuracy
I0417 14:51:01.369236 461272 net.cpp:425] accuracy <- ip1_ip1_0_split_0
I0417 14:51:01.369411 461272 net.cpp:425] accuracy <- label_cifar_1_split_0
I0417 14:51:01.369588 461272 net.cpp:399] accuracy -> accuracy
…
