…
I0412 22:24:58.841847 183670 net.cpp:313] The NetState phase (0) differed from the phase (1) specified by a rule in layer accuracy
I0412 22:24:58.841972 183670 net.cpp:49] Initializing net from parameters: 
name: "CIFAR10_quick"
state {
  phase: TRAIN
}
layer {
  name: "cifar"
  type: "Data"
  top: "data"
  top: "label"
  include {
    phase: TRAIN
  }
  transform_param {
    mean_file: "/home/abaybektursun/projects/GitHub/IndependentStudy/source/data/mean.binaryproto"
  }
  data_param {
    source: "/home/abaybektursun/projects/GitHub/IndependentStudy/source/data/train_lmdb"
    batch_size: 100
    backend: LMDB
  }
}
layer {
  name: "conv1"
  type: "Convolution"
  bottom: "data"
  top: "conv1"
  param {
    lr_mult: 1
  }
  param {
    lr_mult: 2
  }
  convolution_param {
    num_output: 32
    pad: 2
    kernel_size: 5
    stride: 1
    weight_filler {
      type: "gaussian"
      std: 0.0001
    }
    bias_filler {
      type: "constant"
    }
  }
}
layer {
  name: "pool1"
  type: "Pooling"
  bottom: "conv1"
  top: "pool1"
  pooling_param {
    pool: MAX
    kernel_size: 3
    stride: 2
  }
}
layer {
  name: "relu1"
  type: "ReLU"
  bottom: "pool1"
  top: "pool1"
}
layer {
  name: "conv2"
  type: "Convolution"
  bottom: "pool1"
  top: "conv2"
  param {
    lr_mult: 1
  }
  param {
    lr_mult: 2
  }
  convolution_param {
    num_output: 32
    pad: 2
    kernel_size: 5
    stride: 1
    weight_filler {
      type: "gaussian"
      std: 0.01
    }
    bias_filler {
      type: "constant"
    }
  }
}
layer {
  name: "relu2"
  type: "ReLU"
  bottom: "conv2"
  top: "conv2"
}
layer {
  name: "pool2"
  type: "Pooling"
  bottom: "conv2"
  top: "pool2"
  pooling_param {
    pool: AVE
    kernel_size: 3
    stride: 2
  }
}
layer {
  name: "conv3"
  type: "Convolution"
  bottom: "pool2"
  top: "conv3"
  param {
    lr_mult: 1
  }
  param {
    lr_mult: 2
  }
  convolution_param {
    num_output: 64
    pad: 2
    kernel_size: 5
    stride: 1
    weight_filler {
      type: "gaussian"
      std: 0.01
    }
    bias_filler {
      type: "constant"
    }
  }
}
layer {
  name: "relu3"
  type: "ReLU"
  bottom: "conv3"
  top: "conv3"
}
layer {
  name: "pool3"
  type: "Pooling"
  bottom: "conv3"
  top: "pool3"
  pooling_param {
    pool: AVE
    kernel_size: 3
    stride: 2
  }
}
layer {
  name: "ip1"
  type: "InnerProduct"
  bottom: "pool3"
  top: "ip1"
  param {
    lr_mult: 1
  }
  param {
    lr_mult: 2
  }
  inner_product_param {
    num_output: 64
    weight_filler {
      type: "gaussian"
      std: 0.1
    }
    bias_filler {
      type: "constant"
    }
  }
}
layer {
  name: "ip2"
  type: "InnerProduct"
  bottom: "ip1"
  top: "ip2"
  param {
    lr_mult: 1
  }
  param {
    lr_mult: 2
  }
  inner_product_param {
    num_output: 10
    weight_filler {
      type: "gaussian"
      std: 0.1
    }
    bias_filler {
      type: "constant"
    }
  }
}
layer {
  name: "loss"
  type: "SoftmaxWithLoss"
  bottom: "ip2"
  bottom: "label"
  top: "loss"
}
I0412 22:24:58.843397 183670 layer_factory.hpp:77] Creating layer cifar
I0412 22:24:58.843885 183670 net.cpp:91] Creating Layer cifar
I0412 22:24:58.843916 183670 net.cpp:399] cifar -> data
I0412 22:24:58.843969 183670 net.cpp:399] cifar -> label
I0412 22:24:58.844002 183670 data_transformer.cpp:25] Loading mean file from: /home/abaybektursun/projects/GitHub/IndependentStudy/source/data/mean.binaryproto
I0412 22:24:58.844758 183674 db_lmdb.cpp:38] Opened lmdb /home/abaybektursun/projects/GitHub/IndependentStudy/source/data/train_lmdb
I0412 22:24:58.858669 183670 data_layer.cpp:41] output data size: 100,3,128,128
I0412 22:24:58.913378 183670 net.cpp:141] Setting up cifar
I0412 22:24:58.913478 183670 net.cpp:148] Top shape: 100 3 128 128 (4915200)
I0412 22:24:58.913522 183670 net.cpp:148] Top shape: 100 (100)
I0412 22:24:58.913537 183670 net.cpp:156] Memory required for data: 19661200
I0412 22:24:58.913564 183670 layer_factory.hpp:77] Creating layer conv1
I0412 22:24:58.913604 183670 net.cpp:91] Creating Layer conv1
I0412 22:24:58.913625 183670 net.cpp:425] conv1 <- data
I0412 22:24:58.913652 183670 net.cpp:399] conv1 -> conv1
I0412 22:24:59.167788 183670 net.cpp:141] Setting up conv1
I0412 22:24:59.167843 183670 net.cpp:148] Top shape: 100 32 128 128 (52428800)
I0412 22:24:59.167855 183670 net.cpp:156] Memory required for data: 229376400
I0412 22:24:59.167893 183670 layer_factory.hpp:77] Creating layer pool1
I0412 22:24:59.167917 183670 net.cpp:91] Creating Layer pool1
I0412 22:24:59.167930 183670 net.cpp:425] pool1 <- conv1
I0412 22:24:59.167948 183670 net.cpp:399] pool1 -> pool1
I0412 22:24:59.168040 183670 net.cpp:141] Setting up pool1
I0412 22:24:59.168061 183670 net.cpp:148] Top shape: 100 32 64 64 (13107200)
I0412 22:24:59.168076 183670 net.cpp:156] Memory required for data: 281805200
I0412 22:24:59.168090 183670 layer_factory.hpp:77] Creating layer relu1
I0412 22:24:59.168109 183670 net.cpp:91] Creating Layer relu1
I0412 22:24:59.168123 183670 net.cpp:425] relu1 <- pool1
I0412 22:24:59.168138 183670 net.cpp:386] relu1 -> pool1 (in-place)
I0412 22:24:59.168359 183670 net.cpp:141] Setting up relu1
I0412 22:24:59.168380 183670 net.cpp:148] Top shape: 100 32 64 64 (13107200)
I0412 22:24:59.168392 183670 net.cpp:156] Memory required for data: 334234000
I0412 22:24:59.168406 183670 layer_factory.hpp:77] Creating layer conv2
I0412 22:24:59.168429 183670 net.cpp:91] Creating Layer conv2
I0412 22:24:59.168442 183670 net.cpp:425] conv2 <- pool1
I0412 22:24:59.168457 183670 net.cpp:399] conv2 -> conv2
I0412 22:24:59.170974 183670 net.cpp:141] Setting up conv2
I0412 22:24:59.170999 183670 net.cpp:148] Top shape: 100 32 64 64 (13107200)
I0412 22:24:59.171010 183670 net.cpp:156] Memory required for data: 386662800
I0412 22:24:59.171032 183670 layer_factory.hpp:77] Creating layer relu2
I0412 22:24:59.171048 183670 net.cpp:91] Creating Layer relu2
I0412 22:24:59.171061 183670 net.cpp:425] relu2 <- conv2
I0412 22:24:59.171077 183670 net.cpp:386] relu2 -> conv2 (in-place)
I0412 22:24:59.171463 183670 net.cpp:141] Setting up relu2
I0412 22:24:59.171484 183670 net.cpp:148] Top shape: 100 32 64 64 (13107200)
I0412 22:24:59.171497 183670 net.cpp:156] Memory required for data: 439091600
I0412 22:24:59.171510 183670 layer_factory.hpp:77] Creating layer pool2
I0412 22:24:59.171525 183670 net.cpp:91] Creating Layer pool2
I0412 22:24:59.171537 183670 net.cpp:425] pool2 <- conv2
I0412 22:24:59.171553 183670 net.cpp:399] pool2 -> pool2
I0412 22:24:59.171783 183670 net.cpp:141] Setting up pool2
I0412 22:24:59.171802 183670 net.cpp:148] Top shape: 100 32 32 32 (3276800)
I0412 22:24:59.171816 183670 net.cpp:156] Memory required for data: 452198800
I0412 22:24:59.171830 183670 layer_factory.hpp:77] Creating layer conv3
I0412 22:24:59.171851 183670 net.cpp:91] Creating Layer conv3
I0412 22:24:59.171864 183670 net.cpp:425] conv3 <- pool2
I0412 22:24:59.171880 183670 net.cpp:399] conv3 -> conv3
I0412 22:24:59.175969 183670 net.cpp:141] Setting up conv3
I0412 22:24:59.175998 183670 net.cpp:148] Top shape: 100 64 32 32 (6553600)
I0412 22:24:59.176025 183670 net.cpp:156] Memory required for data: 478413200
I0412 22:24:59.176048 183670 layer_factory.hpp:77] Creating layer relu3
I0412 22:24:59.176067 183670 net.cpp:91] Creating Layer relu3
I0412 22:24:59.176080 183670 net.cpp:425] relu3 <- conv3
I0412 22:24:59.176098 183670 net.cpp:386] relu3 -> conv3 (in-place)
I0412 22:24:59.176324 183670 net.cpp:141] Setting up relu3
I0412 22:24:59.176342 183670 net.cpp:148] Top shape: 100 64 32 32 (6553600)
I0412 22:24:59.176388 183670 net.cpp:156] Memory required for data: 504627600
I0412 22:24:59.176401 183670 layer_factory.hpp:77] Creating layer pool3
I0412 22:24:59.176419 183670 net.cpp:91] Creating Layer pool3
I0412 22:24:59.176434 183670 net.cpp:425] pool3 <- conv3
I0412 22:24:59.176448 183670 net.cpp:399] pool3 -> pool3
I0412 22:24:59.176853 183670 net.cpp:141] Setting up pool3
I0412 22:24:59.176877 183670 net.cpp:148] Top shape: 100 64 16 16 (1638400)
I0412 22:24:59.176892 183670 net.cpp:156] Memory required for data: 511181200
I0412 22:24:59.176904 183670 layer_factory.hpp:77] Creating layer ip1
I0412 22:24:59.176933 183670 net.cpp:91] Creating Layer ip1
I0412 22:24:59.176945 183670 net.cpp:425] ip1 <- pool3
I0412 22:24:59.176965 183670 net.cpp:399] ip1 -> ip1
I0412 22:24:59.224957 183670 net.cpp:141] Setting up ip1
I0412 22:24:59.224997 183670 net.cpp:148] Top shape: 100 64 (6400)
I0412 22:24:59.225013 183670 net.cpp:156] Memory required for data: 511206800
I0412 22:24:59.225052 183670 layer_factory.hpp:77] Creating layer ip2
I0412 22:24:59.225075 183670 net.cpp:91] Creating Layer ip2
I0412 22:24:59.225090 183670 net.cpp:425] ip2 <- ip1
I0412 22:24:59.225112 183670 net.cpp:399] ip2 -> ip2
I0412 22:24:59.225277 183670 net.cpp:141] Setting up ip2
I0412 22:24:59.225297 183670 net.cpp:148] Top shape: 100 10 (1000)
I0412 22:24:59.225311 183670 net.cpp:156] Memory required for data: 511210800
I0412 22:24:59.225332 183670 layer_factory.hpp:77] Creating layer loss
I0412 22:24:59.225356 183670 net.cpp:91] Creating Layer loss
I0412 22:24:59.225369 183670 net.cpp:425] loss <- ip2
I0412 22:24:59.225383 183670 net.cpp:425] loss <- label
I0412 22:24:59.225399 183670 net.cpp:399] loss -> loss
I0412 22:24:59.225430 183670 layer_factory.hpp:77] Creating layer loss
…
I0412 22:24:59.226668 183670 net.cpp:313] The NetState phase (1) differed from the phase (0) specified by a rule in layer cifar
I0412 22:24:59.226855 183670 net.cpp:49] Initializing net from parameters: 
name: "CIFAR10_quick"
state {
  phase: TEST
}
layer {
  name: "cifar"
  type: "Data"
  top: "data"
  top: "label"
  include {
    phase: TEST
  }
  transform_param {
    mean_file: "/home/abaybektursun/projects/GitHub/IndependentStudy/source/data/mean.binaryproto"
  }
  data_param {
    source: "/home/abaybektursun/projects/GitHub/IndependentStudy/source/data/test_lmdb"
    batch_size: 100
    backend: LMDB
  }
}
layer {
  name: "conv1"
  type: "Convolution"
  bottom: "data"
  top: "conv1"
  param {
    lr_mult: 1
  }
  param {
    lr_mult: 2
  }
  convolution_param {
    num_output: 32
    pad: 2
    kernel_size: 5
    stride: 1
    weight_filler {
      type: "gaussian"
      std: 0.0001
    }
    bias_filler {
      type: "constant"
    }
  }
}
layer {
  name: "pool1"
  type: "Pooling"
  bottom: "conv1"
  top: "pool1"
  pooling_param {
    pool: MAX
    kernel_size: 3
    stride: 2
  }
}
layer {
  name: "relu1"
  type: "ReLU"
  bottom: "pool1"
  top: "pool1"
}
layer {
  name: "conv2"
  type: "Convolution"
  bottom: "pool1"
  top: "conv2"
  param {
    lr_mult: 1
  }
  param {
    lr_mult: 2
  }
  convolution_param {
    num_output: 32
    pad: 2
    kernel_size: 5
    stride: 1
    weight_filler {
      type: "gaussian"
      std: 0.01
    }
    bias_filler {
      type: "constant"
    }
  }
}
layer {
  name: "relu2"
  type: "ReLU"
  bottom: "conv2"
  top: "conv2"
}
layer {
  name: "pool2"
  type: "Pooling"
  bottom: "conv2"
  top: "pool2"
  pooling_param {
    pool: AVE
    kernel_size: 3
    stride: 2
  }
}
layer {
  name: "conv3"
  type: "Convolution"
  bottom: "pool2"
  top: "conv3"
  param {
    lr_mult: 1
  }
  param {
    lr_mult: 2
  }
  convolution_param {
    num_output: 64
    pad: 2
    kernel_size: 5
    stride: 1
    weight_filler {
      type: "gaussian"
      std: 0.01
    }
    bias_filler {
      type: "constant"
    }
  }
}
layer {
  name: "relu3"
  type: "ReLU"
  bottom: "conv3"
  top: "conv3"
}
layer {
  name: "pool3"
  type: "Pooling"
  bottom: "conv3"
  top: "pool3"
  pooling_param {
    pool: AVE
    kernel_size: 3
    stride: 2
  }
}
layer {
  name: "ip1"
  type: "InnerProduct"
  bottom: "pool3"
  top: "ip1"
  param {
    lr_mult: 1
  }
  param {
    lr_mult: 2
  }
  inner_product_param {
    num_output: 64
    weight_filler {
      type: "gaussian"
      std: 0.1
    }
    bias_filler {
      type: "constant"
    }
  }
}
layer {
  name: "ip2"
  type: "InnerProduct"
  bottom: "ip1"
  top: "ip2"
  param {
    lr_mult: 1
  }
  param {
    lr_mult: 2
  }
  inner_product_param {
    num_output: 10
    weight_filler {
      type: "gaussian"
      std: 0.1
    }
    bias_filler {
      type: "constant"
    }
  }
}
layer {
  name: "accuracy"
  type: "Accuracy"
  bottom: "ip2"
  bottom: "label"
  top: "accuracy"
  include {
    phase: TEST
  }
}
layer {
  name: "loss"
  type: "SoftmaxWithLoss"
  bottom: "ip2"
  bottom: "label"
  top: "loss"
}
I0412 22:24:59.227881 183670 layer_factory.hpp:77] Creating layer cifar
I0412 22:24:59.228027 183670 net.cpp:91] Creating Layer cifar
I0412 22:24:59.228041 183670 net.cpp:399] cifar -> data
I0412 22:24:59.228065 183670 net.cpp:399] cifar -> label
I0412 22:24:59.228080 183670 data_transformer.cpp:25] Loading mean file from: /home/abaybektursun/projects/GitHub/IndependentStudy/source/data/mean.binaryproto
I0412 22:24:59.238533 183676 db_lmdb.cpp:38] Opened lmdb /home/abaybektursun/projects/GitHub/IndependentStudy/source/data/test_lmdb
I0412 22:24:59.251830 183670 data_layer.cpp:41] output data size: 100,3,128,128
I0412 22:24:59.305325 183670 net.cpp:141] Setting up cifar
I0412 22:24:59.305382 183670 net.cpp:148] Top shape: 100 3 128 128 (4915200)
I0412 22:24:59.305398 183670 net.cpp:148] Top shape: 100 (100)
I0412 22:24:59.305413 183670 net.cpp:156] Memory required for data: 19661200
I0412 22:24:59.305467 183670 layer_factory.hpp:77] Creating layer label_cifar_1_split
I0412 22:24:59.305500 183670 net.cpp:91] Creating Layer label_cifar_1_split
I0412 22:24:59.305517 183670 net.cpp:425] label_cifar_1_split <- label
I0412 22:24:59.305538 183670 net.cpp:399] label_cifar_1_split -> label_cifar_1_split_0
I0412 22:24:59.305560 183670 net.cpp:399] label_cifar_1_split -> label_cifar_1_split_1
I0412 22:24:59.305629 183670 net.cpp:141] Setting up label_cifar_1_split
I0412 22:24:59.305647 183670 net.cpp:148] Top shape: 100 (100)
I0412 22:24:59.305665 183670 net.cpp:148] Top shape: 100 (100)
I0412 22:24:59.305678 183670 net.cpp:156] Memory required for data: 19662000
I0412 22:24:59.305692 183670 layer_factory.hpp:77] Creating layer conv1
I0412 22:24:59.305717 183670 net.cpp:91] Creating Layer conv1
I0412 22:24:59.305732 183670 net.cpp:425] conv1 <- data
I0412 22:24:59.305783 183670 net.cpp:399] conv1 -> conv1
I0412 22:24:59.310549 183670 net.cpp:141] Setting up conv1
I0412 22:24:59.310580 183670 net.cpp:148] Top shape: 100 32 128 128 (52428800)
I0412 22:24:59.310606 183670 net.cpp:156] Memory required for data: 229377200
I0412 22:24:59.310629 183670 layer_factory.hpp:77] Creating layer pool1
I0412 22:24:59.310652 183670 net.cpp:91] Creating Layer pool1
I0412 22:24:59.310667 183670 net.cpp:425] pool1 <- conv1
I0412 22:24:59.310683 183670 net.cpp:399] pool1 -> pool1
I0412 22:24:59.310740 183670 net.cpp:141] Setting up pool1
I0412 22:24:59.310760 183670 net.cpp:148] Top shape: 100 32 64 64 (13107200)
I0412 22:24:59.310775 183670 net.cpp:156] Memory required for data: 281806000
I0412 22:24:59.310788 183670 layer_factory.hpp:77] Creating layer relu1
I0412 22:24:59.310807 183670 net.cpp:91] Creating Layer relu1
I0412 22:24:59.310822 183670 net.cpp:425] relu1 <- pool1
I0412 22:24:59.310837 183670 net.cpp:386] relu1 -> pool1 (in-place)
I0412 22:24:59.311234 183670 net.cpp:141] Setting up relu1
I0412 22:24:59.311257 183670 net.cpp:148] Top shape: 100 32 64 64 (13107200)
I0412 22:24:59.311270 183670 net.cpp:156] Memory required for data: 334234800
I0412 22:24:59.311292 183670 layer_factory.hpp:77] Creating layer conv2
I0412 22:24:59.311311 183670 net.cpp:91] Creating Layer conv2
I0412 22:24:59.311326 183670 net.cpp:425] conv2 <- pool1
I0412 22:24:59.311341 183670 net.cpp:399] conv2 -> conv2
I0412 22:24:59.313750 183670 net.cpp:141] Setting up conv2
I0412 22:24:59.313771 183670 net.cpp:148] Top shape: 100 32 64 64 (13107200)
I0412 22:24:59.313783 183670 net.cpp:156] Memory required for data: 386663600
I0412 22:24:59.313802 183670 layer_factory.hpp:77] Creating layer relu2
I0412 22:24:59.313818 183670 net.cpp:91] Creating Layer relu2
I0412 22:24:59.313832 183670 net.cpp:425] relu2 <- conv2
I0412 22:24:59.313846 183670 net.cpp:386] relu2 -> conv2 (in-place)
I0412 22:24:59.314040 183670 net.cpp:141] Setting up relu2
I0412 22:24:59.314059 183670 net.cpp:148] Top shape: 100 32 64 64 (13107200)
I0412 22:24:59.314071 183670 net.cpp:156] Memory required for data: 439092400
I0412 22:24:59.314085 183670 layer_factory.hpp:77] Creating layer pool2
I0412 22:24:59.314110 183670 net.cpp:91] Creating Layer pool2
I0412 22:24:59.314122 183670 net.cpp:425] pool2 <- conv2
I0412 22:24:59.314139 183670 net.cpp:399] pool2 -> pool2
I0412 22:24:59.314564 183670 net.cpp:141] Setting up pool2
I0412 22:24:59.314589 183670 net.cpp:148] Top shape: 100 32 32 32 (3276800)
I0412 22:24:59.314601 183670 net.cpp:156] Memory required for data: 452199600
I0412 22:24:59.314616 183670 layer_factory.hpp:77] Creating layer conv3
I0412 22:24:59.314638 183670 net.cpp:91] Creating Layer conv3
I0412 22:24:59.314652 183670 net.cpp:425] conv3 <- pool2
I0412 22:24:59.314672 183670 net.cpp:399] conv3 -> conv3
I0412 22:24:59.318831 183670 net.cpp:141] Setting up conv3
I0412 22:24:59.318864 183670 net.cpp:148] Top shape: 100 64 32 32 (6553600)
I0412 22:24:59.318881 183670 net.cpp:156] Memory required for data: 478414000
I0412 22:24:59.318907 183670 layer_factory.hpp:77] Creating layer relu3
I0412 22:24:59.318928 183670 net.cpp:91] Creating Layer relu3
I0412 22:24:59.318943 183670 net.cpp:425] relu3 <- conv3
I0412 22:24:59.318960 183670 net.cpp:386] relu3 -> conv3 (in-place)
I0412 22:24:59.319213 183670 net.cpp:141] Setting up relu3
I0412 22:24:59.319241 183670 net.cpp:148] Top shape: 100 64 32 32 (6553600)
I0412 22:24:59.319257 183670 net.cpp:156] Memory required for data: 504628400
I0412 22:24:59.319272 183670 layer_factory.hpp:77] Creating layer pool3
I0412 22:24:59.319289 183670 net.cpp:91] Creating Layer pool3
I0412 22:24:59.319304 183670 net.cpp:425] pool3 <- conv3
I0412 22:24:59.319321 183670 net.cpp:399] pool3 -> pool3
I0412 22:24:59.319789 183670 net.cpp:141] Setting up pool3
I0412 22:24:59.319819 183670 net.cpp:148] Top shape: 100 64 16 16 (1638400)
I0412 22:24:59.319835 183670 net.cpp:156] Memory required for data: 511182000
I0412 22:24:59.319850 183670 layer_factory.hpp:77] Creating layer ip1
I0412 22:24:59.319871 183670 net.cpp:91] Creating Layer ip1
I0412 22:24:59.319912 183670 net.cpp:425] ip1 <- pool3
I0412 22:24:59.319932 183670 net.cpp:399] ip1 -> ip1
I0412 22:24:59.356293 183677 blocking_queue.cpp:50] Waiting for data
I0412 22:24:59.371059 183670 net.cpp:141] Setting up ip1
I0412 22:24:59.371124 183670 net.cpp:148] Top shape: 100 64 (6400)
I0412 22:24:59.371141 183670 net.cpp:156] Memory required for data: 511207600
I0412 22:24:59.371170 183670 layer_factory.hpp:77] Creating layer ip2
I0412 22:24:59.371207 183670 net.cpp:91] Creating Layer ip2
I0412 22:24:59.371224 183670 net.cpp:425] ip2 <- ip1
I0412 22:24:59.371245 183670 net.cpp:399] ip2 -> ip2
I0412 22:24:59.371461 183670 net.cpp:141] Setting up ip2
I0412 22:24:59.371490 183670 net.cpp:148] Top shape: 100 10 (1000)
I0412 22:24:59.371505 183670 net.cpp:156] Memory required for data: 511211600
I0412 22:24:59.371534 183670 layer_factory.hpp:77] Creating layer ip2_ip2_0_split
I0412 22:24:59.371556 183670 net.cpp:91] Creating Layer ip2_ip2_0_split
I0412 22:24:59.371572 183670 net.cpp:425] ip2_ip2_0_split <- ip2
I0412 22:24:59.371592 183670 net.cpp:399] ip2_ip2_0_split -> ip2_ip2_0_split_0
I0412 22:24:59.371610 183670 net.cpp:399] ip2_ip2_0_split -> ip2_ip2_0_split_1
I0412 22:24:59.371681 183670 net.cpp:141] Setting up ip2_ip2_0_split
I0412 22:24:59.371703 183670 net.cpp:148] Top shape: 100 10 (1000)
I0412 22:24:59.371721 183670 net.cpp:148] Top shape: 100 10 (1000)
I0412 22:24:59.371737 183670 net.cpp:156] Memory required for data: 511219600
I0412 22:24:59.371752 183670 layer_factory.hpp:77] Creating layer accuracy
I0412 22:24:59.371778 183670 net.cpp:91] Creating Layer accuracy
I0412 22:24:59.371795 183670 net.cpp:425] accuracy <- ip2_ip2_0_split_0
I0412 22:24:59.371814 183670 net.cpp:425] accuracy <- label_cifar_1_split_0
I0412 22:24:59.371837 183670 net.cpp:399] accuracy -> accuracy
…
