…
I0417 06:02:58.430603 363579 net.cpp:313] The NetState phase (0) differed from the phase (1) specified by a rule in layer accuracy
I0417 06:02:58.430809 363579 net.cpp:49] Initializing net from parameters: 
name: "CIFAR10_quick"
state {
  phase: TRAIN
}
layer {
  name: "cifar"
  type: "Data"
  top: "data"
  top: "label"
  include {
    phase: TRAIN
  }
  transform_param {
    mean_file: "/home/abaybektursun/projects/GitHub/IndependentStudy/source/data/mean.binaryproto"
  }
  data_param {
    source: "/home/abaybektursun/projects/GitHub/IndependentStudy/source/data/train_lmdb"
    batch_size: 100
    backend: LMDB
  }
}
layer {
  name: "conv1"
  type: "Convolution"
  bottom: "data"
  top: "conv1"
  param {
    lr_mult: 1
  }
  param {
    lr_mult: 2
  }
  convolution_param {
    num_output: 32
    pad: 2
    kernel_size: 5
    stride: 1
    weight_filler {
      type: "gaussian"
      std: 0.0001
    }
    bias_filler {
      type: "constant"
    }
  }
}
layer {
  name: "pool1"
  type: "Pooling"
  bottom: "conv1"
  top: "pool1"
  pooling_param {
    pool: MAX
    kernel_size: 3
    stride: 2
  }
}
layer {
  name: "relu1"
  type: "ReLU"
  bottom: "pool1"
  top: "pool1"
}
layer {
  name: "conv2"
  type: "Convolution"
  bottom: "pool1"
  top: "conv2"
  param {
    lr_mult: 1
  }
  param {
    lr_mult: 2
  }
  convolution_param {
    num_output: 32
    pad: 2
    kernel_size: 5
    stride: 1
    weight_filler {
      type: "gaussian"
      std: 0.01
    }
    bias_filler {
      type: "constant"
    }
  }
}
layer {
  name: "relu2"
  type: "ReLU"
  bottom: "conv2"
  top: "conv2"
}
layer {
  name: "pool2"
  type: "Pooling"
  bottom: "conv2"
  top: "pool2"
  pooling_param {
    pool: AVE
    kernel_size: 3
    stride: 2
  }
}
layer {
  name: "conv3"
  type: "Convolution"
  bottom: "pool2"
  top: "conv3"
  param {
    lr_mult: 1
  }
  param {
    lr_mult: 2
  }
  convolution_param {
    num_output: 64
    pad: 2
    kernel_size: 5
    stride: 1
    weight_filler {
      type: "gaussian"
      std: 0.01
    }
    bias_filler {
      type: "constant"
    }
  }
}
layer {
  name: "relu3"
  type: "ReLU"
  bottom: "conv3"
  top: "conv3"
}
layer {
  name: "pool3"
  type: "Pooling"
  bottom: "conv3"
  top: "pool3"
  pooling_param {
    pool: AVE
    kernel_size: 3
    stride: 2
  }
}
layer {
  name: "ip1"
  type: "InnerProduct"
  bottom: "pool3"
  top: "ip1"
  param {
    lr_mult: 1
  }
  param {
    lr_mult: 2
  }
  inner_product_param {
    num_output: 64
    weight_filler {
      type: "gaussian"
      std: 0.1
    }
    bias_filler {
      type: "constant"
    }
  }
}
layer {
  name: "ip2"
  type: "InnerProduct"
  bottom: "ip1"
  top: "ip2"
  param {
    lr_mult: 1
  }
  param {
    lr_mult: 2
  }
  inner_product_param {
    num_output: 10
    weight_filler {
      type: "gaussian"
      std: 0.1
    }
    bias_filler {
      type: "constant"
    }
  }
}
layer {
  name: "loss"
  type: "SoftmaxWithLoss"
  bottom: "ip2"
  bottom: "label"
  top: "loss"
}
I0417 06:02:58.457859 363579 layer_factory.hpp:77] Creating layer cifar
I0417 06:02:58.459709 363579 net.cpp:91] Creating Layer cifar
I0417 06:02:58.459758 363579 net.cpp:399] cifar -> data
I0417 06:02:58.460512 363579 net.cpp:399] cifar -> label
I0417 06:02:58.460553 363579 data_transformer.cpp:25] Loading mean file from: /home/abaybektursun/projects/GitHub/IndependentStudy/source/data/mean.binaryproto
I0417 06:02:58.460644 363583 db_lmdb.cpp:38] Opened lmdb /home/abaybektursun/projects/GitHub/IndependentStudy/source/data/train_lmdb
I0417 06:02:58.593838 363579 data_layer.cpp:41] output data size: 100,3,128,128
I0417 06:02:58.648795 363579 net.cpp:141] Setting up cifar
I0417 06:02:58.648856 363579 net.cpp:148] Top shape: 100 3 128 128 (4915200)
I0417 06:02:58.648881 363579 net.cpp:148] Top shape: 100 (100)
I0417 06:02:58.648895 363579 net.cpp:156] Memory required for data: 19661200
I0417 06:02:58.648938 363579 layer_factory.hpp:77] Creating layer conv1
I0417 06:02:58.648977 363579 net.cpp:91] Creating Layer conv1
I0417 06:02:58.648998 363579 net.cpp:425] conv1 <- data
I0417 06:02:58.649024 363579 net.cpp:399] conv1 -> conv1
I0417 06:03:00.206720 363579 net.cpp:141] Setting up conv1
I0417 06:03:00.206763 363579 net.cpp:148] Top shape: 100 32 128 128 (52428800)
I0417 06:03:00.206774 363579 net.cpp:156] Memory required for data: 229376400
I0417 06:03:00.206836 363579 layer_factory.hpp:77] Creating layer pool1
I0417 06:03:00.206857 363579 net.cpp:91] Creating Layer pool1
I0417 06:03:00.206868 363579 net.cpp:425] pool1 <- conv1
I0417 06:03:00.206888 363579 net.cpp:399] pool1 -> pool1
I0417 06:03:00.213243 363579 net.cpp:141] Setting up pool1
I0417 06:03:00.213270 363579 net.cpp:148] Top shape: 100 32 64 64 (13107200)
I0417 06:03:00.213282 363579 net.cpp:156] Memory required for data: 281805200
I0417 06:03:00.213294 363579 layer_factory.hpp:77] Creating layer relu1
I0417 06:03:00.213327 363579 net.cpp:91] Creating Layer relu1
I0417 06:03:00.213338 363579 net.cpp:425] relu1 <- pool1
I0417 06:03:00.213356 363579 net.cpp:386] relu1 -> pool1 (in-place)
I0417 06:03:00.213596 363579 net.cpp:141] Setting up relu1
I0417 06:03:00.213613 363579 net.cpp:148] Top shape: 100 32 64 64 (13107200)
I0417 06:03:00.213627 363579 net.cpp:156] Memory required for data: 334234000
I0417 06:03:00.213641 363579 layer_factory.hpp:77] Creating layer conv2
I0417 06:03:00.213667 363579 net.cpp:91] Creating Layer conv2
I0417 06:03:00.213680 363579 net.cpp:425] conv2 <- pool1
I0417 06:03:00.213696 363579 net.cpp:399] conv2 -> conv2
I0417 06:03:00.216332 363579 net.cpp:141] Setting up conv2
I0417 06:03:00.216356 363579 net.cpp:148] Top shape: 100 32 64 64 (13107200)
I0417 06:03:00.216378 363579 net.cpp:156] Memory required for data: 386662800
I0417 06:03:00.216394 363579 layer_factory.hpp:77] Creating layer relu2
I0417 06:03:00.216409 363579 net.cpp:91] Creating Layer relu2
I0417 06:03:00.216421 363579 net.cpp:425] relu2 <- conv2
I0417 06:03:00.216435 363579 net.cpp:386] relu2 -> conv2 (in-place)
I0417 06:03:00.216810 363579 net.cpp:141] Setting up relu2
I0417 06:03:00.216826 363579 net.cpp:148] Top shape: 100 32 64 64 (13107200)
I0417 06:03:00.216840 363579 net.cpp:156] Memory required for data: 439091600
I0417 06:03:00.216850 363579 layer_factory.hpp:77] Creating layer pool2
I0417 06:03:00.216862 363579 net.cpp:91] Creating Layer pool2
I0417 06:03:00.216872 363579 net.cpp:425] pool2 <- conv2
I0417 06:03:00.216883 363579 net.cpp:399] pool2 -> pool2
I0417 06:03:00.217100 363579 net.cpp:141] Setting up pool2
I0417 06:03:00.217113 363579 net.cpp:148] Top shape: 100 32 32 32 (3276800)
I0417 06:03:00.217134 363579 net.cpp:156] Memory required for data: 452198800
I0417 06:03:00.217144 363579 layer_factory.hpp:77] Creating layer conv3
I0417 06:03:00.217160 363579 net.cpp:91] Creating Layer conv3
I0417 06:03:00.217178 363579 net.cpp:425] conv3 <- pool2
I0417 06:03:00.217198 363579 net.cpp:399] conv3 -> conv3
I0417 06:03:00.221550 363579 net.cpp:141] Setting up conv3
I0417 06:03:00.221582 363579 net.cpp:148] Top shape: 100 64 32 32 (6553600)
I0417 06:03:00.221611 363579 net.cpp:156] Memory required for data: 478413200
I0417 06:03:00.221631 363579 layer_factory.hpp:77] Creating layer relu3
I0417 06:03:00.221647 363579 net.cpp:91] Creating Layer relu3
I0417 06:03:00.221659 363579 net.cpp:425] relu3 <- conv3
I0417 06:03:00.221675 363579 net.cpp:386] relu3 -> conv3 (in-place)
I0417 06:03:00.221902 363579 net.cpp:141] Setting up relu3
I0417 06:03:00.221917 363579 net.cpp:148] Top shape: 100 64 32 32 (6553600)
I0417 06:03:00.221956 363579 net.cpp:156] Memory required for data: 504627600
I0417 06:03:00.221967 363579 layer_factory.hpp:77] Creating layer pool3
I0417 06:03:00.221981 363579 net.cpp:91] Creating Layer pool3
I0417 06:03:00.221992 363579 net.cpp:425] pool3 <- conv3
I0417 06:03:00.222008 363579 net.cpp:399] pool3 -> pool3
I0417 06:03:00.222434 363579 net.cpp:141] Setting up pool3
I0417 06:03:00.222452 363579 net.cpp:148] Top shape: 100 64 16 16 (1638400)
I0417 06:03:00.222465 363579 net.cpp:156] Memory required for data: 511181200
I0417 06:03:00.222479 363579 layer_factory.hpp:77] Creating layer ip1
I0417 06:03:00.222499 363579 net.cpp:91] Creating Layer ip1
I0417 06:03:00.222515 363579 net.cpp:425] ip1 <- pool3
I0417 06:03:00.222532 363579 net.cpp:399] ip1 -> ip1
I0417 06:03:00.270465 363579 net.cpp:141] Setting up ip1
I0417 06:03:00.270509 363579 net.cpp:148] Top shape: 100 64 (6400)
I0417 06:03:00.270520 363579 net.cpp:156] Memory required for data: 511206800
I0417 06:03:00.270540 363579 layer_factory.hpp:77] Creating layer ip2
I0417 06:03:00.270560 363579 net.cpp:91] Creating Layer ip2
I0417 06:03:00.270571 363579 net.cpp:425] ip2 <- ip1
I0417 06:03:00.270608 363579 net.cpp:399] ip2 -> ip2
I0417 06:03:00.270766 363579 net.cpp:141] Setting up ip2
I0417 06:03:00.270781 363579 net.cpp:148] Top shape: 100 10 (1000)
I0417 06:03:00.270795 363579 net.cpp:156] Memory required for data: 511210800
I0417 06:03:00.270812 363579 layer_factory.hpp:77] Creating layer loss
I0417 06:03:00.270830 363579 net.cpp:91] Creating Layer loss
I0417 06:03:00.270843 363579 net.cpp:425] loss <- ip2
I0417 06:03:00.270856 363579 net.cpp:425] loss <- label
I0417 06:03:00.270871 363579 net.cpp:399] loss -> loss
I0417 06:03:00.271215 363579 layer_factory.hpp:77] Creating layer loss
…
I0417 06:03:00.272439 363579 net.cpp:313] The NetState phase (1) differed from the phase (0) specified by a rule in layer cifar
I0417 06:03:00.272603 363579 net.cpp:49] Initializing net from parameters: 
name: "CIFAR10_quick"
state {
  phase: TEST
}
layer {
  name: "cifar"
  type: "Data"
  top: "data"
  top: "label"
  include {
    phase: TEST
  }
  transform_param {
    mean_file: "/home/abaybektursun/projects/GitHub/IndependentStudy/source/data/mean.binaryproto"
  }
  data_param {
    source: "/home/abaybektursun/projects/GitHub/IndependentStudy/source/data/test_lmdb"
    batch_size: 100
    backend: LMDB
  }
}
layer {
  name: "conv1"
  type: "Convolution"
  bottom: "data"
  top: "conv1"
  param {
    lr_mult: 1
  }
  param {
    lr_mult: 2
  }
  convolution_param {
    num_output: 32
    pad: 2
    kernel_size: 5
    stride: 1
    weight_filler {
      type: "gaussian"
      std: 0.0001
    }
    bias_filler {
      type: "constant"
    }
  }
}
layer {
  name: "pool1"
  type: "Pooling"
  bottom: "conv1"
  top: "pool1"
  pooling_param {
    pool: MAX
    kernel_size: 3
    stride: 2
  }
}
layer {
  name: "relu1"
  type: "ReLU"
  bottom: "pool1"
  top: "pool1"
}
layer {
  name: "conv2"
  type: "Convolution"
  bottom: "pool1"
  top: "conv2"
  param {
    lr_mult: 1
  }
  param {
    lr_mult: 2
  }
  convolution_param {
    num_output: 32
    pad: 2
    kernel_size: 5
    stride: 1
    weight_filler {
      type: "gaussian"
      std: 0.01
    }
    bias_filler {
      type: "constant"
    }
  }
}
layer {
  name: "relu2"
  type: "ReLU"
  bottom: "conv2"
  top: "conv2"
}
layer {
  name: "pool2"
  type: "Pooling"
  bottom: "conv2"
  top: "pool2"
  pooling_param {
    pool: AVE
    kernel_size: 3
    stride: 2
  }
}
layer {
  name: "conv3"
  type: "Convolution"
  bottom: "pool2"
  top: "conv3"
  param {
    lr_mult: 1
  }
  param {
    lr_mult: 2
  }
  convolution_param {
    num_output: 64
    pad: 2
    kernel_size: 5
    stride: 1
    weight_filler {
      type: "gaussian"
      std: 0.01
    }
    bias_filler {
      type: "constant"
    }
  }
}
layer {
  name: "relu3"
  type: "ReLU"
  bottom: "conv3"
  top: "conv3"
}
layer {
  name: "pool3"
  type: "Pooling"
  bottom: "conv3"
  top: "pool3"
  pooling_param {
    pool: AVE
    kernel_size: 3
    stride: 2
  }
}
layer {
  name: "ip1"
  type: "InnerProduct"
  bottom: "pool3"
  top: "ip1"
  param {
    lr_mult: 1
  }
  param {
    lr_mult: 2
  }
  inner_product_param {
    num_output: 64
    weight_filler {
      type: "gaussian"
      std: 0.1
    }
    bias_filler {
      type: "constant"
    }
  }
}
layer {
  name: "ip2"
  type: "InnerProduct"
  bottom: "ip1"
  top: "ip2"
  param {
    lr_mult: 1
  }
  param {
    lr_mult: 2
  }
  inner_product_param {
    num_output: 10
    weight_filler {
      type: "gaussian"
      std: 0.1
    }
    bias_filler {
      type: "constant"
    }
  }
}
layer {
  name: "accuracy"
  type: "Accuracy"
  bottom: "ip2"
  bottom: "label"
  top: "accuracy"
  include {
    phase: TEST
  }
}
layer {
  name: "loss"
  type: "SoftmaxWithLoss"
  bottom: "ip2"
  bottom: "label"
  top: "loss"
}
I0417 06:03:00.274090 363579 layer_factory.hpp:77] Creating layer cifar
I0417 06:03:00.274236 363579 net.cpp:91] Creating Layer cifar
I0417 06:03:00.274253 363579 net.cpp:399] cifar -> data
I0417 06:03:00.274273 363579 net.cpp:399] cifar -> label
I0417 06:03:00.274292 363579 data_transformer.cpp:25] Loading mean file from: /home/abaybektursun/projects/GitHub/IndependentStudy/source/data/mean.binaryproto
I0417 06:03:00.275089 363585 db_lmdb.cpp:38] Opened lmdb /home/abaybektursun/projects/GitHub/IndependentStudy/source/data/test_lmdb
I0417 06:03:00.293895 363579 data_layer.cpp:41] output data size: 100,3,128,128
I0417 06:03:00.352530 363579 net.cpp:141] Setting up cifar
I0417 06:03:00.352604 363579 net.cpp:148] Top shape: 100 3 128 128 (4915200)
I0417 06:03:00.352622 363579 net.cpp:148] Top shape: 100 (100)
I0417 06:03:00.352641 363579 net.cpp:156] Memory required for data: 19661200
I0417 06:03:00.352661 363579 layer_factory.hpp:77] Creating layer label_cifar_1_split
I0417 06:03:00.352691 363579 net.cpp:91] Creating Layer label_cifar_1_split
I0417 06:03:00.352706 363579 net.cpp:425] label_cifar_1_split <- label
I0417 06:03:00.352730 363579 net.cpp:399] label_cifar_1_split -> label_cifar_1_split_0
I0417 06:03:00.352751 363579 net.cpp:399] label_cifar_1_split -> label_cifar_1_split_1
I0417 06:03:00.352867 363579 net.cpp:141] Setting up label_cifar_1_split
I0417 06:03:00.352890 363579 net.cpp:148] Top shape: 100 (100)
I0417 06:03:00.352905 363579 net.cpp:148] Top shape: 100 (100)
I0417 06:03:00.352919 363579 net.cpp:156] Memory required for data: 19662000
I0417 06:03:00.352931 363579 layer_factory.hpp:77] Creating layer conv1
I0417 06:03:00.352955 363579 net.cpp:91] Creating Layer conv1
I0417 06:03:00.352968 363579 net.cpp:425] conv1 <- data
I0417 06:03:00.353018 363579 net.cpp:399] conv1 -> conv1
I0417 06:03:00.358045 363579 net.cpp:141] Setting up conv1
I0417 06:03:00.358077 363579 net.cpp:148] Top shape: 100 32 128 128 (52428800)
I0417 06:03:00.358104 363579 net.cpp:156] Memory required for data: 229377200
I0417 06:03:00.358124 363579 layer_factory.hpp:77] Creating layer pool1
I0417 06:03:00.358144 363579 net.cpp:91] Creating Layer pool1
I0417 06:03:00.358160 363579 net.cpp:425] pool1 <- conv1
I0417 06:03:00.358177 363579 net.cpp:399] pool1 -> pool1
I0417 06:03:00.358235 363579 net.cpp:141] Setting up pool1
I0417 06:03:00.358249 363579 net.cpp:148] Top shape: 100 32 64 64 (13107200)
I0417 06:03:00.358263 363579 net.cpp:156] Memory required for data: 281806000
I0417 06:03:00.358276 363579 layer_factory.hpp:77] Creating layer relu1
I0417 06:03:00.358292 363579 net.cpp:91] Creating Layer relu1
I0417 06:03:00.358305 363579 net.cpp:425] relu1 <- pool1
I0417 06:03:00.358319 363579 net.cpp:386] relu1 -> pool1 (in-place)
I0417 06:03:00.358711 363579 net.cpp:141] Setting up relu1
I0417 06:03:00.358728 363579 net.cpp:148] Top shape: 100 32 64 64 (13107200)
I0417 06:03:00.358744 363579 net.cpp:156] Memory required for data: 334234800
I0417 06:03:00.358757 363579 layer_factory.hpp:77] Creating layer conv2
I0417 06:03:00.358777 363579 net.cpp:91] Creating Layer conv2
I0417 06:03:00.358788 363579 net.cpp:425] conv2 <- pool1
I0417 06:03:00.358803 363579 net.cpp:399] conv2 -> conv2
I0417 06:03:00.361331 363579 net.cpp:141] Setting up conv2
I0417 06:03:00.361351 363579 net.cpp:148] Top shape: 100 32 64 64 (13107200)
I0417 06:03:00.361363 363579 net.cpp:156] Memory required for data: 386663600
I0417 06:03:00.361390 363579 layer_factory.hpp:77] Creating layer relu2
I0417 06:03:00.361407 363579 net.cpp:91] Creating Layer relu2
I0417 06:03:00.361419 363579 net.cpp:425] relu2 <- conv2
I0417 06:03:00.361439 363579 net.cpp:386] relu2 -> conv2 (in-place)
I0417 06:03:00.361686 363579 net.cpp:141] Setting up relu2
I0417 06:03:00.361703 363579 net.cpp:148] Top shape: 100 32 64 64 (13107200)
I0417 06:03:00.361717 363579 net.cpp:156] Memory required for data: 439092400
I0417 06:03:00.361732 363579 layer_factory.hpp:77] Creating layer pool2
I0417 06:03:00.361747 363579 net.cpp:91] Creating Layer pool2
I0417 06:03:00.361760 363579 net.cpp:425] pool2 <- conv2
I0417 06:03:00.361775 363579 net.cpp:399] pool2 -> pool2
I0417 06:03:00.362184 363579 net.cpp:141] Setting up pool2
I0417 06:03:00.362202 363579 net.cpp:148] Top shape: 100 32 32 32 (3276800)
I0417 06:03:00.362217 363579 net.cpp:156] Memory required for data: 452199600
I0417 06:03:00.362231 363579 layer_factory.hpp:77] Creating layer conv3
I0417 06:03:00.362256 363579 net.cpp:91] Creating Layer conv3
I0417 06:03:00.362268 363579 net.cpp:425] conv3 <- pool2
I0417 06:03:00.362287 363579 net.cpp:399] conv3 -> conv3
I0417 06:03:00.366462 363579 net.cpp:141] Setting up conv3
I0417 06:03:00.366503 363579 net.cpp:148] Top shape: 100 64 32 32 (6553600)
I0417 06:03:00.366515 363579 net.cpp:156] Memory required for data: 478414000
I0417 06:03:00.366549 363579 layer_factory.hpp:77] Creating layer relu3
I0417 06:03:00.366576 363579 net.cpp:91] Creating Layer relu3
I0417 06:03:00.366595 363579 net.cpp:425] relu3 <- conv3
I0417 06:03:00.366622 363579 net.cpp:386] relu3 -> conv3 (in-place)
I0417 06:03:00.366854 363579 net.cpp:141] Setting up relu3
I0417 06:03:00.366870 363579 net.cpp:148] Top shape: 100 64 32 32 (6553600)
I0417 06:03:00.366885 363579 net.cpp:156] Memory required for data: 504628400
I0417 06:03:00.366899 363579 layer_factory.hpp:77] Creating layer pool3
I0417 06:03:00.366914 363579 net.cpp:91] Creating Layer pool3
I0417 06:03:00.366927 363579 net.cpp:425] pool3 <- conv3
I0417 06:03:00.366942 363579 net.cpp:399] pool3 -> pool3
I0417 06:03:00.367394 363579 net.cpp:141] Setting up pool3
I0417 06:03:00.367414 363579 net.cpp:148] Top shape: 100 64 16 16 (1638400)
I0417 06:03:00.367427 363579 net.cpp:156] Memory required for data: 511182000
I0417 06:03:00.367440 363579 layer_factory.hpp:77] Creating layer ip1
I0417 06:03:00.367457 363579 net.cpp:91] Creating Layer ip1
I0417 06:03:00.367497 363579 net.cpp:425] ip1 <- pool3
I0417 06:03:00.367514 363579 net.cpp:399] ip1 -> ip1
I0417 06:03:00.407580 363586 blocking_queue.cpp:50] Waiting for data
I0417 06:03:00.419047 363579 net.cpp:141] Setting up ip1
I0417 06:03:00.419101 363579 net.cpp:148] Top shape: 100 64 (6400)
I0417 06:03:00.419116 363579 net.cpp:156] Memory required for data: 511207600
I0417 06:03:00.419137 363579 layer_factory.hpp:77] Creating layer ip2
I0417 06:03:00.419165 363579 net.cpp:91] Creating Layer ip2
I0417 06:03:00.419203 363579 net.cpp:425] ip2 <- ip1
I0417 06:03:00.419220 363579 net.cpp:399] ip2 -> ip2
I0417 06:03:00.419412 363579 net.cpp:141] Setting up ip2
I0417 06:03:00.419432 363579 net.cpp:148] Top shape: 100 10 (1000)
I0417 06:03:00.419448 363579 net.cpp:156] Memory required for data: 511211600
I0417 06:03:00.419472 363579 layer_factory.hpp:77] Creating layer ip2_ip2_0_split
I0417 06:03:00.419490 363579 net.cpp:91] Creating Layer ip2_ip2_0_split
I0417 06:03:00.419502 363579 net.cpp:425] ip2_ip2_0_split <- ip2
I0417 06:03:00.419523 363579 net.cpp:399] ip2_ip2_0_split -> ip2_ip2_0_split_0
I0417 06:03:00.419538 363579 net.cpp:399] ip2_ip2_0_split -> ip2_ip2_0_split_1
I0417 06:03:00.419594 363579 net.cpp:141] Setting up ip2_ip2_0_split
I0417 06:03:00.419612 363579 net.cpp:148] Top shape: 100 10 (1000)
I0417 06:03:00.419630 363579 net.cpp:148] Top shape: 100 10 (1000)
I0417 06:03:00.419641 363579 net.cpp:156] Memory required for data: 511219600
I0417 06:03:00.419656 363579 layer_factory.hpp:77] Creating layer accuracy
I0417 06:03:00.419682 363579 net.cpp:91] Creating Layer accuracy
I0417 06:03:00.419695 363579 net.cpp:425] accuracy <- ip2_ip2_0_split_0
I0417 06:03:00.419711 363579 net.cpp:425] accuracy <- label_cifar_1_split_0
I0417 06:03:00.419730 363579 net.cpp:399] accuracy -> accuracy
…
