…
I0412 21:14:09.184198 172689 net.cpp:313] The NetState phase (0) differed from the phase (1) specified by a rule in layer cifar
I0412 21:14:09.184242 172689 net.cpp:313] The NetState phase (0) differed from the phase (1) specified by a rule in layer accuracy
I0412 21:14:09.184432 172689 net.cpp:49] Initializing net from parameters: 
name: "CIFAR10_quick"
state {
  phase: TRAIN
}
layer {
  name: "cifar"
  type: "Data"
  top: "data"
  top: "label"
  include {
    phase: TRAIN
  }
  transform_param {
    mean_file: "examples/cifar10/mean.binaryproto"
  }
  data_param {
    source: "examples/cifar10/cifar10_train_lmdb"
    batch_size: 100
    backend: LMDB
  }
}
layer {
  name: "conv1"
  type: "Convolution"
  bottom: "data"
  top: "conv1"
  param {
    lr_mult: 1
  }
  param {
    lr_mult: 2
  }
  convolution_param {
    num_output: 32
    pad: 2
    kernel_size: 5
    stride: 1
    weight_filler {
      type: "gaussian"
      std: 0.0001
    }
    bias_filler {
      type: "constant"
    }
  }
}
layer {
  name: "pool1"
  type: "Pooling"
  bottom: "conv1"
  top: "pool1"
  pooling_param {
    pool: MAX
    kernel_size: 3
    stride: 2
  }
}
layer {
  name: "relu1"
  type: "ReLU"
  bottom: "pool1"
  top: "pool1"
}
layer {
  name: "conv2"
  type: "Convolution"
  bottom: "pool1"
  top: "conv2"
  param {
    lr_mult: 1
  }
  param {
    lr_mult: 2
  }
  convolution_param {
    num_output: 32
    pad: 2
    kernel_size: 5
    stride: 1
    weight_filler {
      type: "gaussian"
      std: 0.01
    }
    bias_filler {
      type: "constant"
    }
  }
}
layer {
  name: "relu2"
  type: "ReLU"
  bottom: "conv2"
  top: "conv2"
}
layer {
  name: "pool2"
  type: "Pooling"
  bottom: "conv2"
  top: "pool2"
  pooling_param {
    pool: AVE
    kernel_size: 3
    stride: 2
  }
}
layer {
  name: "conv3"
  type: "Convolution"
  bottom: "pool2"
  top: "conv3"
  param {
    lr_mult: 1
  }
  param {
    lr_mult: 2
  }
  convolution_param {
    num_output: 64
    pad: 2
    kernel_size: 5
    stride: 1
    weight_filler {
      type: "gaussian"
      std: 0.01
    }
    bias_filler {
      type: "constant"
    }
  }
}
layer {
  name: "relu3"
  type: "ReLU"
  bottom: "conv3"
  top: "conv3"
}
layer {
  name: "pool3"
  type: "Pooling"
  bottom: "conv3"
  top: "pool3"
  pooling_param {
    pool: AVE
    kernel_size: 3
    stride: 2
  }
}
layer {
  name: "ip1"
  type: "InnerProduct"
  bottom: "pool3"
  top: "ip1"
  param {
    lr_mult: 1
  }
  param {
    lr_mult: 2
  }
  inner_product_param {
    num_output: 64
    weight_filler {
      type: "gaussian"
      std: 0.1
    }
    bias_filler {
      type: "constant"
    }
  }
}
layer {
  name: "ip2"
  type: "InnerProduct"
  bottom: "ip1"
  top: "ip2"
  param {
    lr_mult: 1
  }
  param {
    lr_mult: 2
  }
  inner_product_param {
    num_output: 10
    weight_filler {
      type: "gaussian"
      std: 0.1
    }
    bias_filler {
      type: "constant"
    }
  }
}
layer {
  name: "loss"
  type: "SoftmaxWithLoss"
  bottom: "ip2"
  bottom: "label"
  top: "loss"
}
I0412 21:14:09.186100 172689 layer_factory.hpp:77] Creating layer cifar
I0412 21:14:09.186879 172689 net.cpp:91] Creating Layer cifar
I0412 21:14:09.186924 172689 net.cpp:399] cifar -> data
I0412 21:14:09.186980 172689 net.cpp:399] cifar -> label
I0412 21:14:09.187022 172689 data_transformer.cpp:25] Loading mean file from: examples/cifar10/mean.binaryproto
I0412 21:14:09.188285 172740 db_lmdb.cpp:38] Opened lmdb examples/cifar10/cifar10_train_lmdb
I0412 21:14:09.202424 172689 data_layer.cpp:41] output data size: 100,3,32,32
I0412 21:14:09.208431 172689 net.cpp:141] Setting up cifar
I0412 21:14:09.208485 172689 net.cpp:148] Top shape: 100 3 32 32 (307200)
I0412 21:14:09.208508 172689 net.cpp:148] Top shape: 100 (100)
I0412 21:14:09.208528 172689 net.cpp:156] Memory required for data: 1229200
I0412 21:14:09.208556 172689 layer_factory.hpp:77] Creating layer conv1
I0412 21:14:09.208600 172689 net.cpp:91] Creating Layer conv1
I0412 21:14:09.208618 172689 net.cpp:425] conv1 <- data
I0412 21:14:09.208653 172689 net.cpp:399] conv1 -> conv1
I0412 21:14:09.500457 172689 net.cpp:141] Setting up conv1
I0412 21:14:09.500509 172689 net.cpp:148] Top shape: 100 32 32 32 (3276800)
I0412 21:14:09.500524 172689 net.cpp:156] Memory required for data: 14336400
I0412 21:14:09.500563 172689 layer_factory.hpp:77] Creating layer pool1
I0412 21:14:09.500604 172689 net.cpp:91] Creating Layer pool1
I0412 21:14:09.500623 172689 net.cpp:425] pool1 <- conv1
I0412 21:14:09.500648 172689 net.cpp:399] pool1 -> pool1
I0412 21:14:09.500732 172689 net.cpp:141] Setting up pool1
I0412 21:14:09.500752 172689 net.cpp:148] Top shape: 100 32 16 16 (819200)
I0412 21:14:09.500766 172689 net.cpp:156] Memory required for data: 17613200
I0412 21:14:09.500797 172689 layer_factory.hpp:77] Creating layer relu1
I0412 21:14:09.500823 172689 net.cpp:91] Creating Layer relu1
I0412 21:14:09.500838 172689 net.cpp:425] relu1 <- pool1
I0412 21:14:09.500857 172689 net.cpp:386] relu1 -> pool1 (in-place)
I0412 21:14:09.501158 172689 net.cpp:141] Setting up relu1
I0412 21:14:09.501188 172689 net.cpp:148] Top shape: 100 32 16 16 (819200)
I0412 21:14:09.501206 172689 net.cpp:156] Memory required for data: 20890000
I0412 21:14:09.501224 172689 layer_factory.hpp:77] Creating layer conv2
I0412 21:14:09.501256 172689 net.cpp:91] Creating Layer conv2
I0412 21:14:09.501277 172689 net.cpp:425] conv2 <- pool1
I0412 21:14:09.501302 172689 net.cpp:399] conv2 -> conv2
I0412 21:14:09.505533 172689 net.cpp:141] Setting up conv2
I0412 21:14:09.505578 172689 net.cpp:148] Top shape: 100 32 16 16 (819200)
I0412 21:14:09.505589 172689 net.cpp:156] Memory required for data: 24166800
I0412 21:14:09.505615 172689 layer_factory.hpp:77] Creating layer relu2
I0412 21:14:09.505632 172689 net.cpp:91] Creating Layer relu2
I0412 21:14:09.505645 172689 net.cpp:425] relu2 <- conv2
I0412 21:14:09.505661 172689 net.cpp:386] relu2 -> conv2 (in-place)
I0412 21:14:09.506058 172689 net.cpp:141] Setting up relu2
I0412 21:14:09.506080 172689 net.cpp:148] Top shape: 100 32 16 16 (819200)
I0412 21:14:09.506095 172689 net.cpp:156] Memory required for data: 27443600
I0412 21:14:09.506109 172689 layer_factory.hpp:77] Creating layer pool2
I0412 21:14:09.506125 172689 net.cpp:91] Creating Layer pool2
I0412 21:14:09.506137 172689 net.cpp:425] pool2 <- conv2
I0412 21:14:09.506153 172689 net.cpp:399] pool2 -> pool2
I0412 21:14:09.506386 172689 net.cpp:141] Setting up pool2
I0412 21:14:09.506402 172689 net.cpp:148] Top shape: 100 32 8 8 (204800)
I0412 21:14:09.506414 172689 net.cpp:156] Memory required for data: 28262800
I0412 21:14:09.506428 172689 layer_factory.hpp:77] Creating layer conv3
I0412 21:14:09.506448 172689 net.cpp:91] Creating Layer conv3
I0412 21:14:09.506459 172689 net.cpp:425] conv3 <- pool2
I0412 21:14:09.506475 172689 net.cpp:399] conv3 -> conv3
I0412 21:14:09.510063 172689 net.cpp:141] Setting up conv3
I0412 21:14:09.510087 172689 net.cpp:148] Top shape: 100 64 8 8 (409600)
I0412 21:14:09.510104 172689 net.cpp:156] Memory required for data: 29901200
I0412 21:14:09.510123 172689 layer_factory.hpp:77] Creating layer relu3
I0412 21:14:09.510149 172689 net.cpp:91] Creating Layer relu3
I0412 21:14:09.510165 172689 net.cpp:425] relu3 <- conv3
I0412 21:14:09.510188 172689 net.cpp:386] relu3 -> conv3 (in-place)
I0412 21:14:09.510426 172689 net.cpp:141] Setting up relu3
I0412 21:14:09.510448 172689 net.cpp:148] Top shape: 100 64 8 8 (409600)
I0412 21:14:09.510462 172689 net.cpp:156] Memory required for data: 31539600
I0412 21:14:09.510478 172689 layer_factory.hpp:77] Creating layer pool3
I0412 21:14:09.510524 172689 net.cpp:91] Creating Layer pool3
I0412 21:14:09.510540 172689 net.cpp:425] pool3 <- conv3
I0412 21:14:09.510555 172689 net.cpp:399] pool3 -> pool3
I0412 21:14:09.511023 172689 net.cpp:141] Setting up pool3
I0412 21:14:09.511045 172689 net.cpp:148] Top shape: 100 64 4 4 (102400)
I0412 21:14:09.511059 172689 net.cpp:156] Memory required for data: 31949200
I0412 21:14:09.511072 172689 layer_factory.hpp:77] Creating layer ip1
I0412 21:14:09.511096 172689 net.cpp:91] Creating Layer ip1
I0412 21:14:09.511109 172689 net.cpp:425] ip1 <- pool3
I0412 21:14:09.511124 172689 net.cpp:399] ip1 -> ip1
I0412 21:14:09.514721 172689 net.cpp:141] Setting up ip1
I0412 21:14:09.514760 172689 net.cpp:148] Top shape: 100 64 (6400)
I0412 21:14:09.514777 172689 net.cpp:156] Memory required for data: 31974800
I0412 21:14:09.514797 172689 layer_factory.hpp:77] Creating layer ip2
I0412 21:14:09.514825 172689 net.cpp:91] Creating Layer ip2
I0412 21:14:09.514842 172689 net.cpp:425] ip2 <- ip1
I0412 21:14:09.514866 172689 net.cpp:399] ip2 -> ip2
I0412 21:14:09.515096 172689 net.cpp:141] Setting up ip2
I0412 21:14:09.515117 172689 net.cpp:148] Top shape: 100 10 (1000)
I0412 21:14:09.515135 172689 net.cpp:156] Memory required for data: 31978800
I0412 21:14:09.515162 172689 layer_factory.hpp:77] Creating layer loss
I0412 21:14:09.515193 172689 net.cpp:91] Creating Layer loss
I0412 21:14:09.515210 172689 net.cpp:425] loss <- ip2
I0412 21:14:09.515228 172689 net.cpp:425] loss <- label
I0412 21:14:09.515244 172689 net.cpp:399] loss -> loss
I0412 21:14:09.515281 172689 layer_factory.hpp:77] Creating layer loss
…
I0412 21:14:09.516671 172689 solver.cpp:181] Creating test net (#0) specified by net file: examples/cifar10/cifar10_quick_train_test.prototxt
I0412 21:14:09.516718 172689 net.cpp:313] The NetState phase (1) differed from the phase (0) specified by a rule in layer cifar
I0412 21:14:09.516906 172689 net.cpp:49] Initializing net from parameters: 
name: "CIFAR10_quick"
state {
  phase: TEST
}
layer {
  name: "cifar"
  type: "Data"
  top: "data"
  top: "label"
  include {
    phase: TEST
  }
  transform_param {
    mean_file: "examples/cifar10/mean.binaryproto"
  }
  data_param {
    source: "examples/cifar10/cifar10_test_lmdb"
    batch_size: 100
    backend: LMDB
  }
}
layer {
  name: "conv1"
  type: "Convolution"
  bottom: "data"
  top: "conv1"
  param {
    lr_mult: 1
  }
  param {
    lr_mult: 2
  }
  convolution_param {
    num_output: 32
    pad: 2
    kernel_size: 5
    stride: 1
    weight_filler {
      type: "gaussian"
      std: 0.0001
    }
    bias_filler {
      type: "constant"
    }
  }
}
layer {
  name: "pool1"
  type: "Pooling"
  bottom: "conv1"
  top: "pool1"
  pooling_param {
    pool: MAX
    kernel_size: 3
    stride: 2
  }
}
layer {
  name: "relu1"
  type: "ReLU"
  bottom: "pool1"
  top: "pool1"
}
layer {
  name: "conv2"
  type: "Convolution"
  bottom: "pool1"
  top: "conv2"
  param {
    lr_mult: 1
  }
  param {
    lr_mult: 2
  }
  convolution_param {
    num_output: 32
    pad: 2
    kernel_size: 5
    stride: 1
    weight_filler {
      type: "gaussian"
      std: 0.01
    }
    bias_filler {
      type: "constant"
    }
  }
}
layer {
  name: "relu2"
  type: "ReLU"
  bottom: "conv2"
  top: "conv2"
}
layer {
  name: "pool2"
  type: "Pooling"
  bottom: "conv2"
  top: "pool2"
  pooling_param {
    pool: AVE
    kernel_size: 3
    stride: 2
  }
}
layer {
  name: "conv3"
  type: "Convolution"
  bottom: "pool2"
  top: "conv3"
  param {
    lr_mult: 1
  }
  param {
    lr_mult: 2
  }
  convolution_param {
    num_output: 64
    pad: 2
    kernel_size: 5
    stride: 1
    weight_filler {
      type: "gaussian"
      std: 0.01
    }
    bias_filler {
      type: "constant"
    }
  }
}
layer {
  name: "relu3"
  type: "ReLU"
  bottom: "conv3"
  top: "conv3"
}
layer {
  name: "pool3"
  type: "Pooling"
  bottom: "conv3"
  top: "pool3"
  pooling_param {
    pool: AVE
    kernel_size: 3
    stride: 2
  }
}
layer {
  name: "ip1"
  type: "InnerProduct"
  bottom: "pool3"
  top: "ip1"
  param {
    lr_mult: 1
  }
  param {
    lr_mult: 2
  }
  inner_product_param {
    num_output: 64
    weight_filler {
      type: "gaussian"
      std: 0.1
    }
    bias_filler {
      type: "constant"
    }
  }
}
layer {
  name: "ip2"
  type: "InnerProduct"
  bottom: "ip1"
  top: "ip2"
  param {
    lr_mult: 1
  }
  param {
    lr_mult: 2
  }
  inner_product_param {
    num_output: 10
    weight_filler {
      type: "gaussian"
      std: 0.1
    }
    bias_filler {
      type: "constant"
    }
  }
}
layer {
  name: "accuracy"
  type: "Accuracy"
  bottom: "ip2"
  bottom: "label"
  top: "accuracy"
  include {
    phase: TEST
  }
}
layer {
  name: "loss"
  type: "SoftmaxWithLoss"
  bottom: "ip2"
  bottom: "label"
  top: "loss"
}
I0412 21:14:09.518805 172689 layer_factory.hpp:77] Creating layer cifar
I0412 21:14:09.518982 172689 net.cpp:91] Creating Layer cifar
I0412 21:14:09.519006 172689 net.cpp:399] cifar -> data
I0412 21:14:09.519035 172689 net.cpp:399] cifar -> label
I0412 21:14:09.519064 172689 data_transformer.cpp:25] Loading mean file from: examples/cifar10/mean.binaryproto
I0412 21:14:09.521922 172761 db_lmdb.cpp:38] Opened lmdb examples/cifar10/cifar10_test_lmdb
I0412 21:14:09.522111 172689 data_layer.cpp:41] output data size: 100,3,32,32
I0412 21:14:09.526479 172689 net.cpp:141] Setting up cifar
I0412 21:14:09.526520 172689 net.cpp:148] Top shape: 100 3 32 32 (307200)
I0412 21:14:09.526535 172689 net.cpp:148] Top shape: 100 (100)
I0412 21:14:09.526549 172689 net.cpp:156] Memory required for data: 1229200
I0412 21:14:09.526567 172689 layer_factory.hpp:77] Creating layer label_cifar_1_split
I0412 21:14:09.526597 172689 net.cpp:91] Creating Layer label_cifar_1_split
I0412 21:14:09.526614 172689 net.cpp:425] label_cifar_1_split <- label
I0412 21:14:09.526636 172689 net.cpp:399] label_cifar_1_split -> label_cifar_1_split_0
I0412 21:14:09.526664 172689 net.cpp:399] label_cifar_1_split -> label_cifar_1_split_1
I0412 21:14:09.526757 172689 net.cpp:141] Setting up label_cifar_1_split
I0412 21:14:09.526774 172689 net.cpp:148] Top shape: 100 (100)
I0412 21:14:09.526796 172689 net.cpp:148] Top shape: 100 (100)
I0412 21:14:09.526813 172689 net.cpp:156] Memory required for data: 1230000
I0412 21:14:09.526831 172689 layer_factory.hpp:77] Creating layer conv1
I0412 21:14:09.526865 172689 net.cpp:91] Creating Layer conv1
I0412 21:14:09.526885 172689 net.cpp:425] conv1 <- data
I0412 21:14:09.526911 172689 net.cpp:399] conv1 -> conv1
I0412 21:14:09.528869 172689 net.cpp:141] Setting up conv1
I0412 21:14:09.528901 172689 net.cpp:148] Top shape: 100 32 32 32 (3276800)
I0412 21:14:09.528923 172689 net.cpp:156] Memory required for data: 14337200
I0412 21:14:09.528950 172689 layer_factory.hpp:77] Creating layer pool1
I0412 21:14:09.528996 172689 net.cpp:91] Creating Layer pool1
I0412 21:14:09.529013 172689 net.cpp:425] pool1 <- conv1
I0412 21:14:09.529036 172689 net.cpp:399] pool1 -> pool1
I0412 21:14:09.529101 172689 net.cpp:141] Setting up pool1
I0412 21:14:09.529122 172689 net.cpp:148] Top shape: 100 32 16 16 (819200)
I0412 21:14:09.529139 172689 net.cpp:156] Memory required for data: 17614000
I0412 21:14:09.529157 172689 layer_factory.hpp:77] Creating layer relu1
I0412 21:14:09.529175 172689 net.cpp:91] Creating Layer relu1
I0412 21:14:09.529194 172689 net.cpp:425] relu1 <- pool1
I0412 21:14:09.529214 172689 net.cpp:386] relu1 -> pool1 (in-place)
I0412 21:14:09.529719 172689 net.cpp:141] Setting up relu1
I0412 21:14:09.529744 172689 net.cpp:148] Top shape: 100 32 16 16 (819200)
I0412 21:14:09.529758 172689 net.cpp:156] Memory required for data: 20890800
I0412 21:14:09.529775 172689 layer_factory.hpp:77] Creating layer conv2
I0412 21:14:09.529804 172689 net.cpp:91] Creating Layer conv2
I0412 21:14:09.529824 172689 net.cpp:425] conv2 <- pool1
I0412 21:14:09.529844 172689 net.cpp:399] conv2 -> conv2
I0412 21:14:09.533090 172689 net.cpp:141] Setting up conv2
I0412 21:14:09.533125 172689 net.cpp:148] Top shape: 100 32 16 16 (819200)
I0412 21:14:09.533146 172689 net.cpp:156] Memory required for data: 24167600
I0412 21:14:09.533170 172689 layer_factory.hpp:77] Creating layer relu2
I0412 21:14:09.533438 172689 net.cpp:91] Creating Layer relu2
I0412 21:14:09.533540 172689 net.cpp:425] relu2 <- conv2
I0412 21:14:09.533619 172689 net.cpp:386] relu2 -> conv2 (in-place)
I0412 21:14:09.533939 172689 net.cpp:141] Setting up relu2
I0412 21:14:09.534034 172689 net.cpp:148] Top shape: 100 32 16 16 (819200)
I0412 21:14:09.534111 172689 net.cpp:156] Memory required for data: 27444400
I0412 21:14:09.534198 172689 layer_factory.hpp:77] Creating layer pool2
I0412 21:14:09.534281 172689 net.cpp:91] Creating Layer pool2
I0412 21:14:09.534359 172689 net.cpp:425] pool2 <- conv2
I0412 21:14:09.534440 172689 net.cpp:399] pool2 -> pool2
I0412 21:14:09.535045 172689 net.cpp:141] Setting up pool2
I0412 21:14:09.535145 172689 net.cpp:148] Top shape: 100 32 8 8 (204800)
I0412 21:14:09.535231 172689 net.cpp:156] Memory required for data: 28263600
I0412 21:14:09.535310 172689 layer_factory.hpp:77] Creating layer conv3
I0412 21:14:09.535405 172689 net.cpp:91] Creating Layer conv3
I0412 21:14:09.535483 172689 net.cpp:425] conv3 <- pool2
I0412 21:14:09.535567 172689 net.cpp:399] conv3 -> conv3
I0412 21:14:09.540093 172689 net.cpp:141] Setting up conv3
I0412 21:14:09.540135 172689 net.cpp:148] Top shape: 100 64 8 8 (409600)
I0412 21:14:09.540151 172689 net.cpp:156] Memory required for data: 29902000
I0412 21:14:09.540179 172689 layer_factory.hpp:77] Creating layer relu3
I0412 21:14:09.540206 172689 net.cpp:91] Creating Layer relu3
I0412 21:14:09.540222 172689 net.cpp:425] relu3 <- conv3
I0412 21:14:09.540242 172689 net.cpp:386] relu3 -> conv3 (in-place)
I0412 21:14:09.540498 172689 net.cpp:141] Setting up relu3
I0412 21:14:09.540519 172689 net.cpp:148] Top shape: 100 64 8 8 (409600)
I0412 21:14:09.540532 172689 net.cpp:156] Memory required for data: 31540400
I0412 21:14:09.540549 172689 layer_factory.hpp:77] Creating layer pool3
I0412 21:14:09.540566 172689 net.cpp:91] Creating Layer pool3
I0412 21:14:09.540581 172689 net.cpp:425] pool3 <- conv3
I0412 21:14:09.540599 172689 net.cpp:399] pool3 -> pool3
I0412 21:14:09.541064 172689 net.cpp:141] Setting up pool3
I0412 21:14:09.541087 172689 net.cpp:148] Top shape: 100 64 4 4 (102400)
I0412 21:14:09.541101 172689 net.cpp:156] Memory required for data: 31950000
I0412 21:14:09.541117 172689 layer_factory.hpp:77] Creating layer ip1
I0412 21:14:09.541136 172689 net.cpp:91] Creating Layer ip1
I0412 21:14:09.541152 172689 net.cpp:425] ip1 <- pool3
I0412 21:14:09.541172 172689 net.cpp:399] ip1 -> ip1
I0412 21:14:09.545353 172689 net.cpp:141] Setting up ip1
I0412 21:14:09.545387 172689 net.cpp:148] Top shape: 100 64 (6400)
I0412 21:14:09.545418 172689 net.cpp:156] Memory required for data: 31975600
I0412 21:14:09.545449 172689 layer_factory.hpp:77] Creating layer ip2
I0412 21:14:09.545508 172689 net.cpp:91] Creating Layer ip2
I0412 21:14:09.545524 172689 net.cpp:425] ip2 <- ip1
I0412 21:14:09.545549 172689 net.cpp:399] ip2 -> ip2
I0412 21:14:09.545730 172689 net.cpp:141] Setting up ip2
I0412 21:14:09.545750 172689 net.cpp:148] Top shape: 100 10 (1000)
I0412 21:14:09.545768 172689 net.cpp:156] Memory required for data: 31979600
I0412 21:14:09.545792 172689 layer_factory.hpp:77] Creating layer ip2_ip2_0_split
I0412 21:14:09.545809 172689 net.cpp:91] Creating Layer ip2_ip2_0_split
I0412 21:14:09.545822 172689 net.cpp:425] ip2_ip2_0_split <- ip2
I0412 21:14:09.545836 172689 net.cpp:399] ip2_ip2_0_split -> ip2_ip2_0_split_0
I0412 21:14:09.545855 172689 net.cpp:399] ip2_ip2_0_split -> ip2_ip2_0_split_1
I0412 21:14:09.545910 172689 net.cpp:141] Setting up ip2_ip2_0_split
I0412 21:14:09.545930 172689 net.cpp:148] Top shape: 100 10 (1000)
I0412 21:14:09.545946 172689 net.cpp:148] Top shape: 100 10 (1000)
I0412 21:14:09.545960 172689 net.cpp:156] Memory required for data: 31987600
I0412 21:14:09.545975 172689 layer_factory.hpp:77] Creating layer accuracy
I0412 21:14:09.545995 172689 net.cpp:91] Creating Layer accuracy
I0412 21:14:09.546010 172689 net.cpp:425] accuracy <- ip2_ip2_0_split_0
I0412 21:14:09.546025 172689 net.cpp:425] accuracy <- label_cifar_1_split_0
I0412 21:14:09.546039 172689 net.cpp:399] accuracy -> accuracy
…
