…
I0418 08:59:23.640950  6643 net.cpp:313] The NetState phase (0) differed from the phase (1) specified by a rule in layer accuracy
I0418 08:59:23.641156  6643 net.cpp:49] Initializing net from parameters: 
name: "CIFAR_full"
state {
  phase: TRAIN
}
layer {
  name: "cifar"
  type: "Data"
  top: "data"
  top: "label"
  include {
    phase: TRAIN
  }
  transform_param {
    mean_file: "/home/abaybektursun/projects/GitHub/IndependentStudy/source/data/mean.binaryproto"
  }
  data_param {
    source: "/home/abaybektursun/projects/GitHub/IndependentStudy/source/data/train_lmdb/"
    batch_size: 100
    backend: LMDB
  }
}
layer {
  name: "conv1"
  type: "Convolution"
  bottom: "data"
  top: "conv1"
  param {
    lr_mult: 1
  }
  param {
    lr_mult: 2
  }
  convolution_param {
    num_output: 32
    pad: 2
    kernel_size: 5
    stride: 1
    weight_filler {
      type: "gaussian"
      std: 0.0001
    }
    bias_filler {
      type: "constant"
    }
  }
}
layer {
  name: "pool1"
  type: "Pooling"
  bottom: "conv1"
  top: "pool1"
  pooling_param {
    pool: MAX
    kernel_size: 3
    stride: 2
  }
}
layer {
  name: "relu1"
  type: "ReLU"
  bottom: "pool1"
  top: "pool1"
}
layer {
  name: "norm1"
  type: "LRN"
  bottom: "pool1"
  top: "norm1"
  lrn_param {
    local_size: 3
    alpha: 5e-05
    beta: 0.75
    norm_region: WITHIN_CHANNEL
  }
}
layer {
  name: "conv2"
  type: "Convolution"
  bottom: "norm1"
  top: "conv2"
  param {
    lr_mult: 1
  }
  param {
    lr_mult: 2
  }
  convolution_param {
    num_output: 32
    pad: 2
    kernel_size: 5
    stride: 1
    weight_filler {
      type: "gaussian"
      std: 0.01
    }
    bias_filler {
      type: "constant"
    }
  }
}
layer {
  name: "relu2"
  type: "ReLU"
  bottom: "conv2"
  top: "conv2"
}
layer {
  name: "pool2"
  type: "Pooling"
  bottom: "conv2"
  top: "pool2"
  pooling_param {
    pool: AVE
    kernel_size: 3
    stride: 2
  }
}
layer {
  name: "norm2"
  type: "LRN"
  bottom: "pool2"
  top: "norm2"
  lrn_param {
    local_size: 3
    alpha: 5e-05
    beta: 0.75
    norm_region: WITHIN_CHANNEL
  }
}
layer {
  name: "conv3"
  type: "Convolution"
  bottom: "norm2"
  top: "conv3"
  convolution_param {
    num_output: 64
    pad: 2
    kernel_size: 5
    stride: 1
    weight_filler {
      type: "gaussian"
      std: 0.01
    }
    bias_filler {
      type: "constant"
    }
  }
}
layer {
  name: "relu3"
  type: "ReLU"
  bottom: "conv3"
  top: "conv3"
}
layer {
  name: "pool3"
  type: "Pooling"
  bottom: "conv3"
  top: "pool3"
  pooling_param {
    pool: AVE
    kernel_size: 3
    stride: 2
  }
}
layer {
  name: "ip1"
  type: "InnerProduct"
  bottom: "pool3"
  top: "ip1"
  param {
    lr_mult: 1
    decay_mult: 250
  }
  param {
    lr_mult: 2
    decay_mult: 0
  }
  inner_product_param {
    num_output: 10
    weight_filler {
      type: "gaussian"
      std: 0.01
    }
    bias_filler {
      type: "constant"
    }
  }
}
layer {
  name: "loss"
  type: "SoftmaxWithLoss"
  bottom: "ip1"
  bottom: "label"
  top: "loss"
}
I0418 08:59:23.677847  6643 layer_factory.hpp:77] Creating layer cifar
I0418 08:59:23.678859  6643 net.cpp:91] Creating Layer cifar
I0418 08:59:23.679054  6643 net.cpp:399] cifar -> data
I0418 08:59:23.679304  6643 net.cpp:399] cifar -> label
I0418 08:59:23.679507  6643 data_transformer.cpp:25] Loading mean file from: /home/abaybektursun/projects/GitHub/IndependentStudy/source/data/mean.binaryproto
I0418 08:59:23.679795  6650 db_lmdb.cpp:38] Opened lmdb /home/abaybektursun/projects/GitHub/IndependentStudy/source/data/train_lmdb/
I0418 08:59:23.693723  6643 data_layer.cpp:41] output data size: 100,3,128,128
I0418 08:59:23.750808  6643 net.cpp:141] Setting up cifar
I0418 08:59:23.751022  6643 net.cpp:148] Top shape: 100 3 128 128 (4915200)
I0418 08:59:23.751247  6643 net.cpp:148] Top shape: 100 (100)
I0418 08:59:23.751462  6643 net.cpp:156] Memory required for data: 19661200
I0418 08:59:23.751651  6643 layer_factory.hpp:77] Creating layer conv1
I0418 08:59:23.751863  6643 net.cpp:91] Creating Layer conv1
I0418 08:59:23.752063  6643 net.cpp:425] conv1 <- data
I0418 08:59:23.752279  6643 net.cpp:399] conv1 -> conv1
I0418 08:59:23.995139  6643 net.cpp:141] Setting up conv1
I0418 08:59:23.995347  6643 net.cpp:148] Top shape: 100 32 128 128 (52428800)
I0418 08:59:23.995523  6643 net.cpp:156] Memory required for data: 229376400
I0418 08:59:23.995719  6643 layer_factory.hpp:77] Creating layer pool1
I0418 08:59:23.995906  6643 net.cpp:91] Creating Layer pool1
I0418 08:59:23.996080  6643 net.cpp:425] pool1 <- conv1
I0418 08:59:23.996259  6643 net.cpp:399] pool1 -> pool1
I0418 08:59:23.996482  6643 net.cpp:141] Setting up pool1
I0418 08:59:23.996657  6643 net.cpp:148] Top shape: 100 32 64 64 (13107200)
I0418 08:59:23.996830  6643 net.cpp:156] Memory required for data: 281805200
I0418 08:59:23.997004  6643 layer_factory.hpp:77] Creating layer relu1
I0418 08:59:23.997184  6643 net.cpp:91] Creating Layer relu1
I0418 08:59:23.997356  6643 net.cpp:425] relu1 <- pool1
I0418 08:59:23.997530  6643 net.cpp:386] relu1 -> pool1 (in-place)
I0418 08:59:23.997880  6643 net.cpp:141] Setting up relu1
I0418 08:59:23.998055  6643 net.cpp:148] Top shape: 100 32 64 64 (13107200)
I0418 08:59:23.998232  6643 net.cpp:156] Memory required for data: 334234000
I0418 08:59:23.998406  6643 layer_factory.hpp:77] Creating layer norm1
I0418 08:59:23.998589  6643 net.cpp:91] Creating Layer norm1
I0418 08:59:23.998761  6643 net.cpp:425] norm1 <- pool1
I0418 08:59:23.998935  6643 net.cpp:399] norm1 -> norm1
I0418 08:59:23.999967  6643 net.cpp:141] Setting up norm1
I0418 08:59:24.000147  6643 net.cpp:148] Top shape: 100 32 64 64 (13107200)
I0418 08:59:24.000334  6643 net.cpp:156] Memory required for data: 386662800
I0418 08:59:24.000511  6643 layer_factory.hpp:77] Creating layer conv2
I0418 08:59:24.000695  6643 net.cpp:91] Creating Layer conv2
I0418 08:59:24.000869  6643 net.cpp:425] conv2 <- norm1
I0418 08:59:24.001045  6643 net.cpp:399] conv2 -> conv2
I0418 08:59:24.003749  6643 net.cpp:141] Setting up conv2
I0418 08:59:24.003933  6643 net.cpp:148] Top shape: 100 32 64 64 (13107200)
I0418 08:59:24.004107  6643 net.cpp:156] Memory required for data: 439091600
I0418 08:59:24.004290  6643 layer_factory.hpp:77] Creating layer relu2
I0418 08:59:24.004467  6643 net.cpp:91] Creating Layer relu2
I0418 08:59:24.004638  6643 net.cpp:425] relu2 <- conv2
I0418 08:59:24.004812  6643 net.cpp:386] relu2 -> conv2 (in-place)
I0418 08:59:24.005169  6643 net.cpp:141] Setting up relu2
I0418 08:59:24.005344  6643 net.cpp:148] Top shape: 100 32 64 64 (13107200)
I0418 08:59:24.005515  6643 net.cpp:156] Memory required for data: 491520400
I0418 08:59:24.005686  6643 layer_factory.hpp:77] Creating layer pool2
I0418 08:59:24.005859  6643 net.cpp:91] Creating Layer pool2
I0418 08:59:24.006029  6643 net.cpp:425] pool2 <- conv2
I0418 08:59:24.006206  6643 net.cpp:399] pool2 -> pool2
I0418 08:59:24.006745  6643 net.cpp:141] Setting up pool2
I0418 08:59:24.006922  6643 net.cpp:148] Top shape: 100 32 32 32 (3276800)
I0418 08:59:24.007104  6643 net.cpp:156] Memory required for data: 504627600
I0418 08:59:24.007282  6643 layer_factory.hpp:77] Creating layer norm2
I0418 08:59:24.007462  6643 net.cpp:91] Creating Layer norm2
I0418 08:59:24.007635  6643 net.cpp:425] norm2 <- pool2
I0418 08:59:24.007808  6643 net.cpp:399] norm2 -> norm2
I0418 08:59:24.008662  6643 net.cpp:141] Setting up norm2
I0418 08:59:24.008838  6643 net.cpp:148] Top shape: 100 32 32 32 (3276800)
I0418 08:59:24.009011  6643 net.cpp:156] Memory required for data: 517734800
I0418 08:59:24.009210  6643 layer_factory.hpp:77] Creating layer conv3
I0418 08:59:24.009392  6643 net.cpp:91] Creating Layer conv3
I0418 08:59:24.009567  6643 net.cpp:425] conv3 <- norm2
I0418 08:59:24.009752  6643 net.cpp:399] conv3 -> conv3
I0418 08:59:24.013896  6643 net.cpp:141] Setting up conv3
I0418 08:59:24.014080  6643 net.cpp:148] Top shape: 100 64 32 32 (6553600)
I0418 08:59:24.014258  6643 net.cpp:156] Memory required for data: 543949200
I0418 08:59:24.014441  6643 layer_factory.hpp:77] Creating layer relu3
I0418 08:59:24.014617  6643 net.cpp:91] Creating Layer relu3
I0418 08:59:24.014791  6643 net.cpp:425] relu3 <- conv3
I0418 08:59:24.014966  6643 net.cpp:386] relu3 -> conv3 (in-place)
I0418 08:59:24.015341  6643 net.cpp:141] Setting up relu3
I0418 08:59:24.015516  6643 net.cpp:148] Top shape: 100 64 32 32 (6553600)
I0418 08:59:24.015689  6643 net.cpp:156] Memory required for data: 570163600
I0418 08:59:24.015862  6643 layer_factory.hpp:77] Creating layer pool3
I0418 08:59:24.016039  6643 net.cpp:91] Creating Layer pool3
I0418 08:59:24.016216  6643 net.cpp:425] pool3 <- conv3
I0418 08:59:24.016389  6643 net.cpp:399] pool3 -> pool3
I0418 08:59:24.016943  6643 net.cpp:141] Setting up pool3
I0418 08:59:24.017119  6643 net.cpp:148] Top shape: 100 64 16 16 (1638400)
I0418 08:59:24.017297  6643 net.cpp:156] Memory required for data: 576717200
I0418 08:59:24.017472  6643 layer_factory.hpp:77] Creating layer ip1
I0418 08:59:24.017652  6643 net.cpp:91] Creating Layer ip1
I0418 08:59:24.017825  6643 net.cpp:425] ip1 <- pool3
I0418 08:59:24.017999  6643 net.cpp:399] ip1 -> ip1
I0418 08:59:24.025809  6643 net.cpp:141] Setting up ip1
I0418 08:59:24.025985  6643 net.cpp:148] Top shape: 100 10 (1000)
I0418 08:59:24.026156  6643 net.cpp:156] Memory required for data: 576721200
I0418 08:59:24.026342  6643 layer_factory.hpp:77] Creating layer loss
I0418 08:59:24.026520  6643 net.cpp:91] Creating Layer loss
I0418 08:59:24.026691  6643 net.cpp:425] loss <- ip1
I0418 08:59:24.026862  6643 net.cpp:425] loss <- label
I0418 08:59:24.027035  6643 net.cpp:399] loss -> loss
I0418 08:59:24.027221  6643 layer_factory.hpp:77] Creating layer loss
…
I0418 08:59:24.032155  6643 net.cpp:313] The NetState phase (1) differed from the phase (0) specified by a rule in layer cifar
I0418 08:59:24.032567  6643 net.cpp:49] Initializing net from parameters: 
name: "CIFAR_full"
state {
  phase: TEST
}
layer {
  name: "cifar"
  type: "Data"
  top: "data"
  top: "label"
  include {
    phase: TEST
  }
  transform_param {
    mean_file: "/home/abaybektursun/projects/GitHub/IndependentStudy/source/data/mean.binaryproto"
  }
  data_param {
    source: "/home/abaybektursun/projects/GitHub/IndependentStudy/source/data/test_lmdb/"
    batch_size: 100
    backend: LMDB
  }
}
layer {
  name: "conv1"
  type: "Convolution"
  bottom: "data"
  top: "conv1"
  param {
    lr_mult: 1
  }
  param {
    lr_mult: 2
  }
  convolution_param {
    num_output: 32
    pad: 2
    kernel_size: 5
    stride: 1
    weight_filler {
      type: "gaussian"
      std: 0.0001
    }
    bias_filler {
      type: "constant"
    }
  }
}
layer {
  name: "pool1"
  type: "Pooling"
  bottom: "conv1"
  top: "pool1"
  pooling_param {
    pool: MAX
    kernel_size: 3
    stride: 2
  }
}
layer {
  name: "relu1"
  type: "ReLU"
  bottom: "pool1"
  top: "pool1"
}
layer {
  name: "norm1"
  type: "LRN"
  bottom: "pool1"
  top: "norm1"
  lrn_param {
    local_size: 3
    alpha: 5e-05
    beta: 0.75
    norm_region: WITHIN_CHANNEL
  }
}
layer {
  name: "conv2"
  type: "Convolution"
  bottom: "norm1"
  top: "conv2"
  param {
    lr_mult: 1
  }
  param {
    lr_mult: 2
  }
  convolution_param {
    num_output: 32
    pad: 2
    kernel_size: 5
    stride: 1
    weight_filler {
      type: "gaussian"
      std: 0.01
    }
    bias_filler {
      type: "constant"
    }
  }
}
layer {
  name: "relu2"
  type: "ReLU"
  bottom: "conv2"
  top: "conv2"
}
layer {
  name: "pool2"
  type: "Pooling"
  bottom: "conv2"
  top: "pool2"
  pooling_param {
    pool: AVE
    kernel_size: 3
    stride: 2
  }
}
layer {
  name: "norm2"
  type: "LRN"
  bottom: "pool2"
  top: "norm2"
  lrn_param {
    local_size: 3
    alpha: 5e-05
    beta: 0.75
    norm_region: WITHIN_CHANNEL
  }
}
layer {
  name: "conv3"
  type: "Convolution"
  bottom: "norm2"
  top: "conv3"
  convolution_param {
    num_output: 64
    pad: 2
    kernel_size: 5
    stride: 1
    weight_filler {
      type: "gaussian"
      std: 0.01
    }
    bias_filler {
      type: "constant"
    }
  }
}
layer {
  name: "relu3"
  type: "ReLU"
  bottom: "conv3"
  top: "conv3"
}
layer {
  name: "pool3"
  type: "Pooling"
  bottom: "conv3"
  top: "pool3"
  pooling_param {
    pool: AVE
    kernel_size: 3
    stride: 2
  }
}
layer {
  name: "ip1"
  type: "InnerProduct"
  bottom: "pool3"
  top: "ip1"
  param {
    lr_mult: 1
    decay_mult: 250
  }
  param {
    lr_mult: 2
    decay_mult: 0
  }
  inner_product_param {
    num_output: 10
    weight_filler {
      type: "gaussian"
      std: 0.01
    }
    bias_filler {
      type: "constant"
    }
  }
}
layer {
  name: "accuracy"
  type: "Accuracy"
  bottom: "ip1"
  bottom: "label"
  top: "accuracy"
  include {
    phase: TEST
  }
}
layer {
  name: "loss"
  type: "SoftmaxWithLoss"
  bottom: "ip1"
  bottom: "label"
  top: "loss"
}
I0418 08:59:24.068567  6643 layer_factory.hpp:77] Creating layer cifar
I0418 08:59:24.068866  6643 net.cpp:91] Creating Layer cifar
I0418 08:59:24.069048  6643 net.cpp:399] cifar -> data
I0418 08:59:24.069254  6643 net.cpp:399] cifar -> label
I0418 08:59:24.069474  6643 data_transformer.cpp:25] Loading mean file from: /home/abaybektursun/projects/GitHub/IndependentStudy/source/data/mean.binaryproto
I0418 08:59:24.069926  6652 db_lmdb.cpp:38] Opened lmdb /home/abaybektursun/projects/GitHub/IndependentStudy/source/data/test_lmdb/
I0418 08:59:24.070539  6643 data_layer.cpp:41] output data size: 100,3,128,128
I0418 08:59:24.127403  6643 net.cpp:141] Setting up cifar
I0418 08:59:24.127609  6643 net.cpp:148] Top shape: 100 3 128 128 (4915200)
I0418 08:59:24.127827  6643 net.cpp:148] Top shape: 100 (100)
I0418 08:59:24.128043  6643 net.cpp:156] Memory required for data: 19661200
I0418 08:59:24.128224  6643 layer_factory.hpp:77] Creating layer label_cifar_1_split
I0418 08:59:24.128543  6643 net.cpp:91] Creating Layer label_cifar_1_split
I0418 08:59:24.131253  6643 net.cpp:425] label_cifar_1_split <- label
I0418 08:59:24.131456  6643 net.cpp:399] label_cifar_1_split -> label_cifar_1_split_0
I0418 08:59:24.131727  6643 net.cpp:399] label_cifar_1_split -> label_cifar_1_split_1
I0418 08:59:24.132071  6643 net.cpp:141] Setting up label_cifar_1_split
I0418 08:59:24.132252  6643 net.cpp:148] Top shape: 100 (100)
I0418 08:59:24.132429  6643 net.cpp:148] Top shape: 100 (100)
I0418 08:59:24.132603  6643 net.cpp:156] Memory required for data: 19662000
I0418 08:59:24.132779  6643 layer_factory.hpp:77] Creating layer conv1
I0418 08:59:24.132966  6643 net.cpp:91] Creating Layer conv1
I0418 08:59:24.133139  6643 net.cpp:425] conv1 <- data
I0418 08:59:24.133321  6643 net.cpp:399] conv1 -> conv1
I0418 08:59:24.134745  6643 net.cpp:141] Setting up conv1
I0418 08:59:24.134925  6643 net.cpp:148] Top shape: 100 32 128 128 (52428800)
I0418 08:59:24.135102  6643 net.cpp:156] Memory required for data: 229377200
I0418 08:59:24.135290  6643 layer_factory.hpp:77] Creating layer pool1
I0418 08:59:24.135470  6643 net.cpp:91] Creating Layer pool1
I0418 08:59:24.135645  6643 net.cpp:425] pool1 <- conv1
I0418 08:59:24.135820  6643 net.cpp:399] pool1 -> pool1
I0418 08:59:24.136034  6643 net.cpp:141] Setting up pool1
I0418 08:59:24.136212  6643 net.cpp:148] Top shape: 100 32 64 64 (13107200)
I0418 08:59:24.136387  6643 net.cpp:156] Memory required for data: 281806000
I0418 08:59:24.136562  6643 layer_factory.hpp:77] Creating layer relu1
I0418 08:59:24.136742  6643 net.cpp:91] Creating Layer relu1
I0418 08:59:24.136915  6643 net.cpp:425] relu1 <- pool1
I0418 08:59:24.137091  6643 net.cpp:386] relu1 -> pool1 (in-place)
I0418 08:59:24.137629  6643 net.cpp:141] Setting up relu1
I0418 08:59:24.137805  6643 net.cpp:148] Top shape: 100 32 64 64 (13107200)
I0418 08:59:24.137979  6643 net.cpp:156] Memory required for data: 334234800
I0418 08:59:24.138155  6643 layer_factory.hpp:77] Creating layer norm1
I0418 08:59:24.138339  6643 net.cpp:91] Creating Layer norm1
I0418 08:59:24.138510  6643 net.cpp:425] norm1 <- pool1
I0418 08:59:24.138684  6643 net.cpp:399] norm1 -> norm1
I0418 08:59:24.139636  6643 net.cpp:141] Setting up norm1
I0418 08:59:24.139813  6643 net.cpp:148] Top shape: 100 32 64 64 (13107200)
I0418 08:59:24.139986  6643 net.cpp:156] Memory required for data: 386663600
I0418 08:59:24.140161  6643 layer_factory.hpp:77] Creating layer conv2
I0418 08:59:24.140344  6643 net.cpp:91] Creating Layer conv2
I0418 08:59:24.140517  6643 net.cpp:425] conv2 <- norm1
I0418 08:59:24.140692  6643 net.cpp:399] conv2 -> conv2
I0418 08:59:24.143431  6643 net.cpp:141] Setting up conv2
I0418 08:59:24.143612  6643 net.cpp:148] Top shape: 100 32 64 64 (13107200)
I0418 08:59:24.143786  6643 net.cpp:156] Memory required for data: 439092400
I0418 08:59:24.143965  6643 layer_factory.hpp:77] Creating layer relu2
I0418 08:59:24.144140  6643 net.cpp:91] Creating Layer relu2
I0418 08:59:24.144316  6643 net.cpp:425] relu2 <- conv2
I0418 08:59:24.144491  6643 net.cpp:386] relu2 -> conv2 (in-place)
I0418 08:59:24.145035  6643 net.cpp:141] Setting up relu2
I0418 08:59:24.145212  6643 net.cpp:148] Top shape: 100 32 64 64 (13107200)
I0418 08:59:24.145386  6643 net.cpp:156] Memory required for data: 491521200
I0418 08:59:24.145561  6643 layer_factory.hpp:77] Creating layer pool2
I0418 08:59:24.145741  6643 net.cpp:91] Creating Layer pool2
I0418 08:59:24.145915  6643 net.cpp:425] pool2 <- conv2
I0418 08:59:24.146090  6643 net.cpp:399] pool2 -> pool2
I0418 08:59:24.146666  6643 net.cpp:141] Setting up pool2
I0418 08:59:24.146843  6643 net.cpp:148] Top shape: 100 32 32 32 (3276800)
I0418 08:59:24.147019  6643 net.cpp:156] Memory required for data: 504628400
I0418 08:59:24.147200  6643 layer_factory.hpp:77] Creating layer norm2
I0418 08:59:24.147382  6643 net.cpp:91] Creating Layer norm2
I0418 08:59:24.147557  6643 net.cpp:425] norm2 <- pool2
I0418 08:59:24.147732  6643 net.cpp:399] norm2 -> norm2
I0418 08:59:24.148767  6643 net.cpp:141] Setting up norm2
I0418 08:59:24.148948  6643 net.cpp:148] Top shape: 100 32 32 32 (3276800)
I0418 08:59:24.149123  6643 net.cpp:156] Memory required for data: 517735600
I0418 08:59:24.149304  6643 layer_factory.hpp:77] Creating layer conv3
I0418 08:59:24.149492  6643 net.cpp:91] Creating Layer conv3
I0418 08:59:24.149668  6643 net.cpp:425] conv3 <- norm2
I0418 08:59:24.149870  6643 net.cpp:399] conv3 -> conv3
I0418 08:59:24.153864  6643 net.cpp:141] Setting up conv3
I0418 08:59:24.154413  6643 net.cpp:148] Top shape: 100 64 32 32 (6553600)
I0418 08:59:24.154609  6643 net.cpp:156] Memory required for data: 543950000
I0418 08:59:24.157577  6643 layer_factory.hpp:77] Creating layer relu3
I0418 08:59:24.157791  6643 net.cpp:91] Creating Layer relu3
I0418 08:59:24.157996  6643 net.cpp:425] relu3 <- conv3
I0418 08:59:24.158196  6643 net.cpp:386] relu3 -> conv3 (in-place)
I0418 08:59:24.160863  6643 net.cpp:141] Setting up relu3
I0418 08:59:24.161046  6643 net.cpp:148] Top shape: 100 64 32 32 (6553600)
I0418 08:59:24.161227  6643 net.cpp:156] Memory required for data: 570164400
I0418 08:59:24.161404  6643 layer_factory.hpp:77] Creating layer pool3
I0418 08:59:24.161582  6643 net.cpp:91] Creating Layer pool3
I0418 08:59:24.161758  6643 net.cpp:425] pool3 <- conv3
I0418 08:59:24.161936  6643 net.cpp:399] pool3 -> pool3
I0418 08:59:24.162562  6643 net.cpp:141] Setting up pool3
I0418 08:59:24.162744  6643 net.cpp:148] Top shape: 100 64 16 16 (1638400)
I0418 08:59:24.162919  6643 net.cpp:156] Memory required for data: 576718000
I0418 08:59:24.163095  6643 layer_factory.hpp:77] Creating layer ip1
I0418 08:59:24.163280  6643 net.cpp:91] Creating Layer ip1
I0418 08:59:24.163455  6643 net.cpp:425] ip1 <- pool3
I0418 08:59:24.163635  6643 net.cpp:399] ip1 -> ip1
I0418 08:59:24.172420  6643 net.cpp:141] Setting up ip1
I0418 08:59:24.172607  6643 net.cpp:148] Top shape: 100 10 (1000)
I0418 08:59:24.172785  6643 net.cpp:156] Memory required for data: 576722000
I0418 08:59:24.172972  6643 layer_factory.hpp:77] Creating layer ip1_ip1_0_split
I0418 08:59:24.173157  6643 net.cpp:91] Creating Layer ip1_ip1_0_split
I0418 08:59:24.173336  6643 net.cpp:425] ip1_ip1_0_split <- ip1
I0418 08:59:24.173513  6643 net.cpp:399] ip1_ip1_0_split -> ip1_ip1_0_split_0
I0418 08:59:24.173693  6643 net.cpp:399] ip1_ip1_0_split -> ip1_ip1_0_split_1
I0418 08:59:24.173912  6643 net.cpp:141] Setting up ip1_ip1_0_split
I0418 08:59:24.174088  6643 net.cpp:148] Top shape: 100 10 (1000)
I0418 08:59:24.174265  6643 net.cpp:148] Top shape: 100 10 (1000)
I0418 08:59:24.174439  6643 net.cpp:156] Memory required for data: 576730000
I0418 08:59:24.174612  6643 layer_factory.hpp:77] Creating layer accuracy
I0418 08:59:24.174794  6643 net.cpp:91] Creating Layer accuracy
I0418 08:59:24.174967  6643 net.cpp:425] accuracy <- ip1_ip1_0_split_0
I0418 08:59:24.175139  6643 net.cpp:425] accuracy <- label_cifar_1_split_0
I0418 08:59:24.175318  6643 net.cpp:399] accuracy -> accuracy
…
